overunder_model.pth (torch, 516056 bytes, 5 tensors)

layer1.weight f4 [64, 1971]
000000 38 91 23 bc 77 87 37 ba 37 24 c4 3b 32 df ba 3c
       -0.009983353 -0.0007001082 0.0059857625 0.022811506
000010 1c f4 07 3d 25 a4 3c bc 6b 2e a3 8e 47 e1 ea 0c
       0.033191785 -0.0115137445 -4.02273e-30 3.6188992e-31
000020 dc 6e 04 02 8c a1 c9 01 fa a8 2b 02 9d e5 19 02
       9.729643e-38 7.406755e-38 1.261159e-37 1.130656e-37
000030 76 c0 1b 82 04 8e 35 02 18 dc 16 02 9e e4 ad 3a
       -1.1442835e-37 1.3338536e-37 1.1083423e-37 0.0013266986
000040 24 48 0a 02 72 04 08 02 14 a9 74 80 8c e1 ac 81
       1.0159342e-37 9.992978e-38 -1.0713571e-38 -6.3506465e-38
000050 de 66 36 bb 3d 21 32 02 99 c5 74 0e 38 cd f0 00
       -0.002783231 1.3086914e-37 3.0170462e-30 2.2114138e-38
000060 60 dc 14 00 08 fd b0 81 78 3a 0c 00 fe c0 41 00
       1.915766e-39 -6.501527e-38 1.123e-39 6.03854e-39
000070 81 2a 78 01 f8 b2 cd 81 98 e6 c1 01 0e 36 9e 00
       4.55809e-38 -7.5561914e-38 7.122789e-38 1.45294e-38
000080 f0 7b 31 80 f4 73 70 81 91 ee 19 02 ec 94 1e 82
       -4.5444e-39 -4.416423e-38 1.130913e-37 -1.1650745e-37
000090 10 70 9a 01 94 e5 21 80 f2 a4 c7 00 28 1f 10 80
       5.673147e-38 -3.112928e-39 1.8334435e-38 -1.480545e-39
0000a0 c4 4c 13 00 be 56 d6 01 e2 0e 09 82 2b b3 d9 81
       1.772413e-39 7.8735654e-38 -1.0069442e-37 -7.9970304e-38
0000b0 78 2b a2 80 a4 8f d3 81 d4 61 21 82 32 37 09 82
       -1.4892944e-38 -7.7715273e-38 -1.1856487e-37 -1.0081011e-37
0000c0 9f 04 7c 81 d8 4e 26 81 2f 03 f5 81 76 08 58 80
       -4.6288406e-38 -3.0545952e-38 -9.0003354e-38 -8.084559e-39
0000d0 f8 f1 be 01 98 dc 31 82 ab 42 52 81 20 c1 19 02
       7.0142185e-38 -1.3067214e-37 -3.861874e-38 1.1296089e-37
0000e0 30 ab 46 00 e5 bb 8b 81 56 20 0f 82 a6 a3 86 81
       6.489895e-39 -5.133015e-38 -1.0515261e-37 -4.945865e-38
0000f0 f7 b2 ac 81 ab 56 36 81 af e3 18 02 e7 a0 be 81
       -6.3439623e-38 -3.3490302e-38 1.1232538e-37 -7.002586e-38
000100 68 07 d8 bb 37 2e 2b 02 32 33 06 02 e2 d8 ad 3a
       -0.00659268 1.2576359e-37 9.859458e-38 0.0013263489
000110 fe 1c c6 01 5e 77 9b 81 a4 2e 13 81 22 e1 75 3b
       7.2775315e-38 -5.710929e-38 -2.70331e-38 0.0037518223
000120 ec 8e bb 01 45 ed 2c 01 d5 f0 c2 81 f0 57 06 02
       6.8898034e-38 3.1761643e-38 -7.160992e-38 9.870002e-38
000130 3c a8 65 81 08 da e2 81 22 bf 0e 02 50 26 7d 81
       -4.218136e-38 -8.333215e-38 1.0487365e-37 -4.649625e-38
000140 51 c2 0b 02 70 41 16 02 72 be 95 81 d1 e7 09 02
       1.0267873e-37 1.1039039e-37 -5.500723e-38 1.0131698e-37
000150 90 b0 fe 80 b7 c4 fa 01 ce 14 74 01 b4 7f 30 80
       -2.3389555e-38 9.211777e-38 4.483065e-38 -4.453915e-39
000160 8b 4e 38 82 3e ea a9 01 10 85 32 81 36 ce 16 02
       -1.3540726e-37 6.2416916e-38 -3.2788904e-38 1.1079439e-37
000170 6e e7 a0 81 a6 2e 97 01 31 01 29 02 66 31 f3 01
       -5.9106803e-38 5.5535577e-38 1.2416501e-37 8.9334986e-38
000180 a1 d8 01 01 2c 0a 22 82 24 ab b2 01 76 ce 3b 82
       2.3848982e-38 -1.19048e-37 6.563245e-38 -1.3797842e-37
000190 c9 5c 81 01 c9 92 11 02 b9 6b 51 80 9c e2 3f 0e
       4.7520256e-38 1.0695043e-37 -7.477319e-39 2.3651676e-30
0001a0 0a 7d ab 81 60 99 35 82 f8 32 0d 01 38 17 41 81
       -6.29949e-38 -1.3341796e-37 2.5934178e-38 -3.546516e-38
0001b0 12 48 7a 81 d0 e4 35 80 88 59 0c 02 48 7c 00 02
       -4.5969456e-38 -4.949364e-39 1.031127e-37 9.439622e-38
0001c0 de a0 70 0e 73 d3 2b 02 38 6e d1 81 b0 47 12 01
       2.9659739e-30 1.2623779e-37 -7.693263e-38 2.6867398e-38
0001d0 e3 91 08 82 93 57 10 bb c6 fc 75 3b c4 9a af 80
       -1.0033569e-37 -0.0022024855 0.0037534698 -1.6126731e-38
0001e0 fe 95 24 02 6c 00 f9 01 31 9a 00 82 ef 2f 1d 02
       1.2091863e-37 9.146876e-38 -9.448206e-38 1.1548295e-37
0001f0 c8 ae ff 80 3d 7a 20 02 cc ec 22 02 08 5d 12 00
       -2.3480751e-38 1.1790024e-37 1.1969838e-37 1.686412e-39
000200 b8 24 4f 00 11 63 27 82 4e ed bb 81 32 46 93 81
       7.268176e-39 -1.2297653e-37 -6.9033467e-38 -5.4099997e-38
000210 78 eb b0 81 f2 2b ac 3a e4 98 d8 bb bc 7a 55 bb
       -6.499007e-38 0.0013135655 -0.006610023 -0.0032574376
000220 fa cc 2e 00 22 db 75 3b f1 7c 94 01 e4 5a d2 81
       4.297965e-39 0.0037514647 5.4545896e-38 -7.727224e-38
000230 4a fe ad 01 1e 24 81 00 d2 58 e0 01 a5 75 d1 01
       6.391505e-38 1.1859735e-38 8.2412055e-38 7.6943286e-38
000240 1e f1 6b 00 3a 2e df 01 49 cb 04 82 6f 14 13 02
       9.912895e-39 8.1983594e-38 -9.756168e-38 1.0805719e-37
000250 e0 28 23 02 fa e5 9e 81 a8 64 37 02 58 e0 e0 01
       1.1987079e-37 -5.8370034e-38 1.3473604e-37 8.260652e-38
000260 94 f5 83 80 be 2c 2b 82 be 7e 0f 82 40 c5 f7 00
       -1.2118547e-38 -1.2575936e-37 -1.0542354e-37 2.2754128e-38
000270 3b ed f6 81 13 cb 2d 82 ac 6c c7 01 54 b6 95 81
       -9.070654e-38 -1.2768312e-37 7.325699e-38 -5.4995584e-38
000280 51 08 19 02 00 de 6c 80 e6 0e 01 82 18 1e 12 02
       1.1243051e-37 -9.997872e-39 -9.481699e-38 1.0735022e-37
000290 ca 74 06 02 96 12 04 02 04 ba 5b 01 7d 4b 0a 82
       9.878282e-38 9.703162e-38 4.0357407e-38 -1.0160303e-37
0002a0 24 54 99 81 5b 9f 84 01 82 fc c4 01 57 53 11 02
       -5.632406e-38 4.8717806e-38 7.236136e-38 1.0676835e-37
0002b0 b4 fb 18 82 c5 48 ac 3a 7d 4b b0 01 03 51 62 81
       -1.1239432e-37 0.0013144246 6.476051e-38 -4.1567767e-38
0002c0 9b d8 1b 02 26 ae a8 80 a9 87 1e bb aa ab ca 81
       1.1449764e-37 -1.5490836e-38 -0.0024189746 -7.4449407e-38
0002d0 c1 ac 29 82 85 98 d3 81 25 23 ec 01 fe b9 41 81
       -1.2465737e-37 -7.7728014e-38 8.674314e-38 -3.5581944e-38
0002e0 19 b4 46 81 36 e7 0a 82 ae 9d 24 82 49 db 1f 81
       -3.649607e-38 -1.0204993e-37 -1.2094069e-37 -2.9361017e-38
0002f0 57 ef 2b 02 7a a8 a9 80 d6 f2 2f 81 cd 4d 3f 81
       1.2631783e-37 -1.5580637e-38 -3.231665e-38 -3.513698e-38
000300 ec 3d fa 81 c1 1f be 81 1e 3f db 81 08 a5 07 82
       -9.192435e-38 -6.984054e-38 -8.0538463e-38 -9.965595e-38
000310 14 a1 c0 01 83 eb f1 01 84 6d 74 81 ac 3e ae 81
       7.0760797e-38 8.886736e-38 -4.4894296e-38 -6.4007435e-38
000320 58 32 10 02 a4 cc a1 81 6f 3c f2 81 5c 19 31 81
       1.0593897e-37 -5.9435704e-38 -8.898348e-38 -3.252796e-38
000330 30 e5 57 80 77 d6 18 82 4b cd 99 01 1c d5 b5 80
       -8.071905e-39 -1.1228745e-37 5.6497905e-38 -1.6698674e-38
000340 24 44 32 00 b6 92 0c 82 a7 d0 01 02 80 73 10 81
       4.616219e-39 -1.032768e-37 9.537303e-38 -2.653149e-38
000350 4a b7 19 82 8e 5a e7 01 a0 0c 27 82 24 85 10 82
       -1.1293266e-37 8.498594e-38 -1.2272845e-37 -1.0617659e-37
000360 3f 0e ae 81 e4 96 06 00 05 b3 21 82 0f 4a 86 81
       -6.393795e-38 6.05142e-40 -1.1879788e-37 -4.9330095e-38
000370 0d 3f 8e 01 ac 1e ab 01 7e f1 a3 81 ca c1 22 02
       5.2253035e-38 6.285949e-38 -6.022327e-38 1.1957495e-37
000380 bf 97 9a 01 63 5a ec 81 d4 a8 ad 81 44 78 15 81
       5.678841e-38 -8.6822407e-38 -6.379242e-38 -2.7453264e-38
000390 03 fe c8 01 f2 51 68 80 ca 8b 16 81 9b 02 0b 82
       7.3832886e-38 -9.580288e-39 -2.7650943e-38 -1.0212855e-37
0003a0 72 07 43 01 3a 12 ed 01 17 b0 d4 01 6a d3 c4 00
       3.5821185e-38 8.7086204e-38 7.812918e-38 1.8075598e-38
0003b0 e2 19 d9 01 19 b9 a3 81 3f 1f 33 02 8c 0e c9 80
       7.975035e-38 -6.0142346e-38 1.315981e-37 -1.8464153e-38
0003c0 5c f0 91 81 e2 33 3e 02 50 ff 79 80 f2 ce 03 00
       -5.3609487e-38 1.3973885e-37 -1.1203684e-38 3.49744e-40
0003d0 5e b4 90 01 b4 1d df 81 5a 91 56 81 d0 6b 4a 81
       5.315606e-38 -8.1959884e-38 -3.9409877e-38 -3.7178892e-38
0003e0 fc f1 d6 81 2e 27 1c 02 8c ee e7 01 d2 29 1c 02
       -7.8958415e-38 1.1472314e-37 8.5198296e-38 1.1473072e-37
0003f0 08 ab 6a 81 06 97 ed 00 8b 79 08 02 02 0e 07 02
       -4.310172e-38 2.181919e-38 1.0026583e-37 9.922254e-38

layer1.bias f4 [64]
000000 b8 3c 7e b4 3e ba 58 bb 4b e3 d9 bc cd ed 3f bc
       -2.3677683e-07 -0.0033069993 -0.02659764 -0.011714411
000010 6b 82 13 13 a1 46 19 bd 40 ea 9d 38 36 e7 17 ba
       1.861831e-27 -0.037420873 7.529976e-05 -0.0005794646
000020 2b a2 91 01 eb d3 58 bb 98 a4 42 90 c5 fe 3a ae
       5.349729e-38 -0.0033085297 -3.8386552e-29 -4.2517784e-11
000030 17 13 a4 3a 9a b3 31 bb 7a 07 bf bc f7 aa d4 bc
       0.0012517896 -0.0027115108 -0.023318995 -0.025960429
000040 88 06 82 39 76 28 cc bb 70 a3 e8 bb 51 63 83 bb
       0.00024800398 -0.0062304093 -0.0070995614 -0.004009642
000050 04 73 f6 ba dd eb b4 3a b4 8f a0 3b 92 e8 1a bc
       -0.0018802588 0.0013803203 0.0048999432 -0.009454863
000060 95 15 c3 bc ba 17 b9 bb 9e f3 2e bc 9e 03 2a bc
       -0.023814002 -0.0056485804 -0.0106782 -0.010376839
000070 e2 b9 53 bb c3 1b 79 3a bf a0 41 83 3a 73 3d ba
       -0.003230684 0.0009502733 -5.690213e-37 -0.0007226948
000080 89 80 24 bd b2 1d 4b bc 21 25 3c 80 9b 27 ca ba
       -0.040161643 -0.012397217 -5.523449e-39 -0.001542318
000090 6e 47 02 ba 4b d5 32 3a d6 b9 ee bc 1c 81 db bc
       -0.00049697503 0.0006821944 -0.029141348 -0.026794963
0000a0 25 ae 07 b9 1d fa d3 bc a8 e0 1f 02 39 5d eb b8
       -0.00012939477 -0.0258761 1.1745948e-37 -0.00011223037
0000b0 a4 eb 49 bc e7 1b e4 37 0b ae ce bc 92 f4 76 ba
       -0.0123242475 2.7192711e-05 -0.025229475 -0.0009420599
0000c0 66 a8 73 ba 79 d2 82 3a 9b 2c bc bc d9 f9 e8 bb
       -0.00092948077 0.0009980939 -0.022970488 -0.0071098623
0000d0 4a 91 8e bc bf aa d0 bb 46 8f 14 bc 32 02 5c bc
       -0.017403264 -0.006368011 -0.009067362 -0.013428258
0000e0 01 ab fe bc d4 58 34 bc b8 da a9 bc e8 ae 0c ab
       -0.0310874 -0.011007506 -0.020734176 -4.998072e-13
0000f0 02 f1 ac bc 9d 6d 29 bc 80 76 84 80 52 da 25 bd
       -0.021111015 -0.010341075 -1.2164795e-38 -0.04049141

layer2.weight f4 [32, 64]
000000 f6 7e 6c 3b bb ae df 3b 7b fc c3 3d c4 aa 25 bc
       0.0036086417 0.0068262494 0.09569641 -0.0101115145
000010 85 4f c7 ae dd c1 8a 3c 88 3d d0 bb 60 15 a9 2f
       -9.063598e-11 0.016938144 -0.0063549913 3.075611e-10
000020 24 68 04 82 6f 14 22 3c 86 1b 1d 13 f1 cf e5 35
       -9.727715e-38 0.009892567 1.9829756e-27 1.7122348e-06
000030 19 28 d3 3b 78 02 d4 2f 11 76 ad 3d 45 61 02 be
       0.006443989 3.856433e-10 0.08469785 -0.12732418
000040 8f bc 9c bb 6a 5b f9 be c6 63 2e 3d 02 87 09 bf
       -0.00478322 -0.48702556 0.04257562 -0.5372163
000050 d9 9c fc 3b c0 96 86 3b a2 79 0e 3c 9a 60 02 3c
       0.0077091274 0.0041073263 0.008695992 0.007957602
000060 82 01 93 3c 94 f3 0b bd dc 06 4b 3f e3 3c 8f be
       0.017945055 -0.03416784 0.7930734 -0.2797614
000070 8f 47 41 bd de 80 a1 ba 2e 54 ef b4 27 51 af 3b
       -0.047187384 -0.0012321731 -4.4578468e-07 0.0053502503
000080 b1 81 02 3e ca a6 aa 3c ab cd 1f 00 2a 09 86 3b
       0.12744786 0.020831484 2.92068e-39 0.004090448
000090 f1 45 43 3a 95 0c 0a bb 72 e5 42 be af 0b 3d bd
       0.0007449082 -0.0021064628 -0.19032839 -0.04615372
0000a0 7a ce 8c bb 8c 07 17 bd a4 9e 11 80 96 4f 03 3a
       -0.004297075 -0.03687243 -1.618113e-39 0.00050091126
0000b0 48 4b 76 3b 43 c0 55 bb dc 0c 19 3e 9f 2f 1c 00
       0.0037581492 -0.0032615818 0.14946312 2.588477e-39
0000c0 13 64 c0 3a f9 20 30 39 41 ac 0a 3e 8b 2c 52 3a
       0.0014678262 0.00016796951 0.13542272 0.00080175017
0000d0 b4 f1 52 bc 5d dc 24 3c 6a f8 27 3b 8c e3 3d bc
       -0.012875009 0.010062304 0.0025630244 -0.011589896
0000e0 0a b9 17 be bf 4e b9 3c 4c ca 27 3e 53 c3 ea 0c
       -0.1481668 0.022620557 0.16385764 3.6170965e-31
0000f0 30 84 26 3d c2 ff c3 3c 87 38 f2 ad 41 80 c1 bd
       0.040653408 0.023925666 -2.7537318e-11 -0.094482906
000100 16 f8 df 3c ad 87 92 bd 79 5e dd bd 85 51 36 be
       0.027339976 -0.07154784 -0.10809035 -0.17804535
000110 36 c3 9b 9a a5 ad dc 3d 40 32 04 3c 40 fc e4 ba
       -6.442188e-23 0.107753076 0.008068621 -0.0017470196
000120 8e 57 53 b5 0a 39 40 be aa d1 b7 b5 30 7e 84 28
       -7.8731034e-07 -0.18771759 -1.3695583e-06 1.4709669e-14
000130 66 f3 1f 3c 8f 1c 66 3b f1 76 73 be ee 10 36 3c
       0.009762621 0.0035112237 -0.23775841 0.011112435
000140 78 96 e4 3c 06 97 a6 3e 02 9e 08 be b6 60 1d 3f
       0.02790378 0.32537097 -0.13341525 0.61475694
000150 bd a4 d3 bc 6d c9 00 3d fe 99 3a be 65 c4 4a 3d
       -0.02583539 0.031442095 -0.18222806 0.049503703
000160 47 e3 85 3c 5e 1c 1f be 99 04 1d bd 27 96 5f 3e
       0.016343726 -0.15538165 -0.038334463 0.21834622
000170 74 64 41 3e f5 e2 30 3d c6 f4 e2 01 0b 7c 10 bd
       0.18885976 0.043185193 8.337052e-38 -0.035274547
000180 68 e3 18 be 84 2f 0e 3e eb f0 bd b1 8a ca 92 bd
       -0.14930499 0.13885313 -5.528013e-09 -0.071675375
000190 45 4d 02 3d df db 39 bc 50 c4 3f 3d ff 28 97 bd
       0.03181197 -0.011343925 0.046818078 -0.07380866
0001a0 e4 fe 86 bc e4 de 53 be eb fe aa 35 e4 fa 01 3d
       -0.016478963 -0.20690495 1.2740178e-06 0.03173341
0001b0 b3 52 3c 3d a6 3c b7 3c e4 db 2c 3e d9 1c 95 a3
       0.045977306 0.022367787 0.16880757 -1.616683e-17
0001c0 ca 1b d7 bc 87 1c fa 3c d5 78 8c bd 9f 90 06 bd
       -0.026258368 0.030531181 -0.068589844 -0.032852765
0001d0 be bd 7f bc 6f 3f 39 3e 3d 9c d4 bd d2 fa 5f be
       -0.015609203 0.18090604 -0.103813626 -0.21873024
0001e0 fb 2f 22 be 14 98 0f be 68 92 f7 bd 2e ea 89 2f
       -0.15838616 -0.14022857 -0.12088472 2.508655e-10
0001f0 a1 70 5d 3d 62 99 2b be b6 a6 f9 01 67 fd 0f bc
       0.05406249 -0.1675773 9.170737e-38 -0.008788443
000200 1b 65 0b 3d 11 b0 e8 3d 7b 95 3f be d8 18 99 3d
       0.03403197 0.11361707 -0.18709366 0.07475442
000210 4c 4c b2 35 c4 e0 85 bc 1d ba 79 bd 08 d6 bd 3a
       1.3284239e-06 -0.016342528 -0.060968507 0.0014483342
000220 b6 72 8d af 13 e4 7b 3d 6a 07 c0 95 e2 37 db 10
       -2.5729258e-10 0.061496805 -7.755988e-26 8.646637e-29
000230 93 ac 6f 3b 62 49 0c 3c 82 db 58 3d 04 b9 47 3d
       0.0036571368 0.008562418 0.052943714 0.04876043
000240 42 28 36 bd 06 6d 7e be fc 93 98 bd 4d fe c9 be
       -0.044471987 -0.24846277 -0.07450101 -0.3945183
000250 28 95 ae 3d a0 cf 5e 3d c8 51 bc bd b1 81 ab bc
       0.08524543 0.054397225 -0.09195286 -0.020935865
000260 d9 62 43 3c c5 93 52 bd 07 7b a7 3e c6 6c 0e be
       0.011925423 -0.051410455 0.3271105 -0.13908681
000270 07 76 19 be d1 59 b4 bd 0c e2 9c 01 9c 35 73 3d
       -0.1498643 -0.088061936 5.762971e-38 0.059377298
000280 a8 8e 13 3d cf 05 35 be 10 57 06 82 4e 1b ae 3c
       0.03602472 -0.17677997 -9.869751e-38 0.021253254
000290 4c 10 ae bc 49 c2 fe 3b 5a 61 a7 bd 91 29 4c 3e
       -0.021248005 0.0077746254 -0.08172865 0.19937731
0002a0 9d 7a 35 3c 05 7a c6 bc 92 91 17 82 0c 19 bb 3c
       0.011076597 -0.024228105 -1.1135505e-37 0.022839092
0002b0 70 e8 cf 3d 73 71 7e bd 97 88 9f 3d 9b cd 9e 3c
       0.10151756 -0.062119912 0.07789724 0.01938515
0002c0 36 88 25 3d 2e 21 6c 3a b5 62 14 be e9 a2 78 3d
       0.040413104 0.00090076297 -0.14490779 0.06070224
0002d0 91 f5 ad bd 83 b4 02 be 1c 75 1c 3e 8c 0f 58 3d
       -0.08494104 -0.12764172 0.15279049 0.0527492
0002e0 d0 a2 82 bc f3 d9 2f 3e a6 2c 85 bd 46 b5 4f 00
       -0.015946776 0.17172985 -0.06502657 7.320033e-39
0002f0 db ef 8a bd bf 0a b8 3d 8b 7d 90 ab 1f 76 c1 3d
       -0.0678403 0.08986425 -1.0266661e-12 0.09446358
000300 7d a2 be 3c 20 29 ef 3c 3c 4e cb bd 18 07 4a 3d
       0.02327084 0.029194415 -0.099270314 0.04932317
000310 84 7b b2 b3 bb 84 06 3e 64 fd 09 3d 8d 46 f4 bc
       -8.311238e-08 0.1313657 0.033688918 -0.029818797
000320 92 57 d1 00 7b d6 5c 3d de d4 8a af ca 7a bb 31
       1.9225033e-38 0.053915482 -2.5253305e-10 5.456376e-09
000330 90 3d 8e ba f5 4b 9a 3b 0b f3 64 3e 6d f2 3d 3e
       -0.0010852087 0.004708762 0.22358339 0.1854951
000340 77 18 ff 3c ac d8 8b 3e 47 01 32 be fb 7d dc 3e
       0.031139595 0.27313745 -0.173833 0.43064865
000350 0c 97 5d bd b5 41 4b bd d8 18 5b be 1c 7a b3 3b
       -0.054099128 -0.04962321 -0.21396196 0.005477203
000360 60 11 af 3d cc 8d 82 be 79 7e 86 bd 0f 48 55 3e
       0.08548236 -0.25498807 -0.065670915 0.2082827
000370 ad 21 48 be f1 13 5c be 3c 55 e6 34 f1 b1 16 bc
       -0.19544096 -0.21491982 4.2902855e-07 -0.009197698
000380 5a 6d 1c 3e fd e7 83 3d 38 17 9d 32 da ae 75 bd
       0.1527609 0.06440733 1.8287764e-08 -0.059981205
000390 34 77 68 bd 78 e2 f2 3a 16 99 4a be 7e e1 08 bd
       -0.056754306 0.0018530628 -0.1978496 -0.03341817
0003a0 00 fb 2e 3d ff 14 a1 bd ed 8f 29 02 41 9c 60 39
       0.04271984 -0.07865333 1.2457464e-37 0.00021420514
0003b0 c6 ac dc 3d 33 4e 0e 3d a0 2c 00 be f7 7c 6d 3d
       0.107751414 0.034742545 -0.12517023 0.057980504
0003c0 0a 4c a7 ba 42 ce 6d 3c 65 9b 64 be 07 7d df 3d
       -0.001276375 0.014514508 -0.22324903 0.10912519
0003d0 da f4 f7 3c f7 22 5b bd 67 97 88 be d1 21 12 3e
       0.030268122 -0.053500142 -0.2667801 0.14270712
0003e0 4f 9c f3 bc 65 f4 4d 3e c9 b3 09 be 84 03 3b 31
       -0.02973762 0.2011276 -0.13447489 2.721408e-09
0003f0 8d d8 26 be 3a 9f 49 3e 4b 9e ad 30 96 a6 2b 3e
       -0.16293545 0.19689646 1.2632396e-09 0.16762766

layer2.bias f4 [32]
000000 5d 17 1d 3f 40 39 5b 3b cd b3 9f 3e ef 38 f5 3d
       0.61363775 0.0033450872 0.31191865 0.1197375
000010 b1 bd 3f bd 64 0a 7e 3c df d7 8a bb e0 87 d4 bb
       -0.046811763 0.015505407 -0.0042371596 -0.006485924
000020 12 ab 82 be cf 18 a5 bd 78 53 10 3d 9c 85 4d 3e
       -0.2552114 -0.080613725 0.035235852 0.20070499
000030 b0 d7 87 3d 89 1e dd bc fd 1f 12 bd e0 4f 31 bc
       0.06632936 -0.0269921 -0.035675038 -0.010822266
000040 09 22 76 3e 86 1f 6f bd 8d 36 e5 bd 03 ac 96 3e
       0.24036421 -0.058379672 -0.11192045 0.2942811
000050 16 42 14 be 8c 25 ea 3a 96 40 ce 3c 79 b8 0e bd
       -0.14478335 0.0017863973 0.025177281 -0.034843896
000060 9e bc 12 3f 94 b4 8b 3e b8 05 29 3d 16 69 51 3b
       0.57319057 0.27286208 0.04126522 0.0031953505
000070 97 21 de 3d e9 28 cc 3d d9 03 6f bd 57 f7 ae 3d
       0.108462505 0.099687405 -0.05835328 0.0854327

output.weight f4 [1, 32]
000000 b9 59 0b 3e 2a 4b 15 bf be 0b e6 3e 83 fc 87 be
       0.13608445 -0.58317816 0.44930834 -0.2655984
000010 45 da 99 be 4a 3e 91 bd 37 d6 73 bc 3b 85 1d 3e
       -0.3004934 -0.07091959 -0.014882616 0.15382855
000020 98 3a 92 3e 52 57 23 3c 45 ef c0 bc fd 5a 11 3e
       0.28560328 0.009969549 -0.023551593 0.14194866
000030 29 72 90 bd 7a cd 6c 3e bb c6 a1 3e b5 61 8e bc
       -0.07053024 0.23125258 0.31596932 -0.017380575
000040 2e 39 1b bd 96 20 53 3e df 3d 25 3d 28 ef cf 3d
       -0.037896328 0.206179 0.040342208 0.10153037
000050 ee c5 88 be e0 18 3e be 9e ce 28 be 17 35 a5 be
       -0.26713508 -0.18564177 -0.16485068 -0.32267067
000060 f9 d7 66 3e f2 b6 73 3e d9 bb c9 be 25 d7 90 ba
       0.22543325 0.23800257 -0.3940113 -0.0011050446
000070 b9 9e b9 be 75 86 d7 be 9b f8 1d 3e 4c d4 c3 be
       -0.36253908 -0.4209477 0.15426867 -0.38247907
