overunder_model.pth (torch, 29848 bytes, 5 tensors)

layer1.weight f4 [64, 72]
000000 97 16 05 bc 6e f9 bf 3d ab 28 8b bd 1c 8a b7 3d
       -0.008123062 0.09373747 -0.06794866 0.08961889
000010 91 9f 76 bd e2 35 46 3d e4 2b 92 3c 82 4f bf bc
       -0.060210768 0.04839123 0.017843194 -0.023353342
000020 76 c0 26 3d c7 2e 21 3e 31 29 ac bd e8 45 c1 bd
       0.04071089 0.157405 -0.08406294 -0.09437162
000030 02 8d 0a bd 6d 46 a1 3d c7 5a 95 3d d4 fa bf bc
       -0.03382588 0.07874761 0.07292705 -0.023435034
000040 fe 97 1e 3d c8 02 3d 3a 3d 8c 38 3d 5a 67 fe 3d
       0.03871917 0.0007210192 0.045055617 0.124220565
000050 48 ad 8a 3d 54 c0 20 bd 31 36 ca bd e0 88 04 3e
       0.06771332 -0.03924592 -0.098736174 0.12942839
000060 ac 19 80 be a4 40 10 3d aa 2d 5d bc 59 24 c6 3e
       -0.25019586 0.035217896 -0.013499657 0.38699606
000070 82 6a f4 3d 76 59 0f bd 93 55 23 3e a3 7d 8f 3e
       0.11934377 -0.034997426 0.15950613 0.2802554
000080 f9 b2 0a 3e 5c ef 9d bd dd e1 d9 bd fc 8e e4 bc
       0.13544835 -0.0771167 -0.10638783 -0.027900212
000090 ab bf 12 bd 82 2e c2 bd f6 b3 02 3e 40 0d cc bd
       -0.03582732 -0.09481527 0.12763962 -0.09963465
0000a0 6d 05 46 3d 7b 0f b4 bb 91 a2 c2 3d 43 e2 1e bd
       0.04834502 -0.0054950095 0.09503663 -0.03879
0000b0 be 3b 51 bd 2d 75 d8 bd a0 31 4a bd 0d c2 59 3d
       -0.051082365 -0.105692245 -0.049363732 0.053163577
0000c0 8e b8 b9 bd 32 73 45 3d b0 76 56 bc 46 3f f9 3c
       -0.09068404 0.048205562 -0.013089821 0.030425679
0000d0 86 58 ad 3d 14 06 ab 3d 65 6f bb 3d c9 c5 8d bd
       0.0846415 0.08350769 0.09152106 -0.0692249
0000e0 19 e8 61 3b 6e ca 92 bd ba 47 a7 bd 4f cf 17 3e
       0.0034470616 -0.07167517 -0.08167978 0.14825176
0000f0 19 43 b1 3d a9 80 88 bd ac 96 74 3c a9 30 c6 bc
       0.08655376 -0.06665165 0.014928501 -0.024193125
000100 09 bc 8d 3e aa 67 de 3d af e5 73 3c da 09 a7 be
       0.27682522 0.10859616 0.014886304 -0.32624704
000110 9e b8 6f 3d 6a 07 0e bd ea 18 ac bd fb 61 26 3e
       0.058525674 -0.03467504 -0.084031895 0.16248314
000120 07 11 25 3d 3d 32 4f 3c 81 8a 4d bb 01 98 b0 bd
       0.04029944 0.012646255 -0.0031363072 -0.086227424
000130 12 19 5f bd 77 00 68 3d 05 d8 a2 bd c9 ff 84 bd
       -0.05446727 0.05664107 -0.07951359 -0.064941
000140 c8 5b 0c 3e 95 84 52 3e 2e 04 02 bd 26 5e 3f 3d
       0.13706887 0.20558389 -0.031742267 0.046720646
000150 8b 9b 22 3d 99 eb cc 3d 9a 5d 84 3d a5 6e 03 bd
       0.03969912 0.10005874 0.064631656 -0.03208794
000160 71 31 41 bd d4 51 01 be a3 55 7a bd e8 39 b7 3c
       -0.04716629 -0.12628871 -0.061116826 0.022366479
000170 c2 cb 92 3e 75 88 8a 3d 23 91 6d be 5f 53 a0 3c
       0.2867108 0.06764308 -0.23199897 0.019571004
000180 5f 80 01 be 49 51 ee 3d 23 1e bc bb dd b9 8a 3e
       -0.12646626 0.11636598 -0.0057408973 0.27094927
000190 57 d0 08 3e e3 e9 9c 3d ec 59 ca 3d ac 93 9d 3e
       0.13360725 0.07661798 0.098804325 0.30776727
0001a0 3c 45 f8 3d 36 dc 8c 3c cf 93 92 3a 87 0a 25 3e
       0.121225804 0.017194849 0.0011182966 0.16117297
0001b0 f8 b6 78 bd 9a 83 17 be 9f 00 81 3e 54 ef ca bc
       -0.060721368 -0.14796296 0.25195786 -0.024772324
0001c0 b6 72 93 bd d1 21 e5 3d a7 aa 47 bd b9 1d fc 3d
       -0.07199614 0.111880906 -0.04874673 0.12310357
0001d0 46 97 b6 3d 6c 56 76 bd 8a b9 f6 bd 57 4e a9 bd
       0.08915572 -0.060141012 -0.120471075 -0.08266895
0001e0 c8 f9 f6 3c 5f 63 1c 3e 42 19 5f be 46 19 99 bd
       0.030148402 0.15272282 -0.21786979 -0.07475524
0001f0 55 c8 0e 3e aa cf 18 bc 96 72 b3 3c 31 3a a2 bd
       0.13943608 -0.009326855 0.021905225 -0.079212554
000200 eb fd 70 bb 02 19 78 be 3f c3 fc 3d 4c c2 92 3e
       -0.003677244 -0.2422829 0.12341928 0.28663862
000210 e9 e8 1c 3d 3c 16 92 bd c9 d2 58 bd d5 26 8a 3e
       0.038308058 -0.07133147 -0.052935395 0.2698275
000220 67 b2 07 bf b1 b8 5a bd 59 bd 19 3e ef de ad 3d
       -0.53006595 -0.05339879 0.15013637 0.08489787
000230 f0 aa 96 3d bd ca 18 3e c7 c8 a0 3d e1 78 a0 3e
       0.073568225 0.14921089 0.07850795 0.31342223
000240 76 09 db 3d 2f e2 08 3d da 8d 49 bd 48 aa 03 3d
       0.10695164 0.03341883 -0.049207546 0.032144815
000250 23 e9 b2 3c e0 73 dc 3d ee 30 45 bb f2 46 5f bd
       0.021839684 0.10764289 -0.0030088979 -0.054511018
000260 0e 68 81 bd cc a5 25 bd db d9 b7 3d 7d 03 15 be
       -0.06318675 -0.04044132 0.089770995 -0.14552112
000270 5b 2d c3 3d 8e 76 94 bd 50 d3 20 bd 18 46 9a bd
       0.09530135 -0.07249175 -0.039264023 -0.075329006
000280 16 4f ee 3d cf 0b 41 be 54 31 02 3a 11 6f 19 bc
       0.11636178 -0.18852161 0.0004966457 -0.009364859
000290 52 e6 ac bd 21 2c f1 bc c0 8c af be ed a6 59 3e
       -0.084423676 -0.029439988 -0.3428707 0.21255083
0002a0 0a a8 84 3e 7e de 19 3d 17 5c c9 3d a1 f4 3d 3e
       0.25909454 0.0375657 0.09832018 0.1855035
0002b0 4e 31 53 3d 54 76 23 3d 22 52 9f bd ea 07 f1 3c
       0.051560692 0.03990777 -0.077793375 0.029422719
0002c0 e8 fe ab 3c ab c5 a4 3e 13 18 ed bd a5 b8 7a bd
       0.020995572 0.3218206 -0.115768574 -0.061211247
0002d0 76 69 aa bd 3e b7 0c be 56 8e f6 3d 10 fa 88 3d
       -0.08320896 -0.13741776 0.12038867 0.06688321
0002e0 1c 19 4c 3c a7 62 dd 3d 44 76 3b bd 5b d2 05 bc
       0.012457158 0.10809832 -0.045767084 -0.008167828
0002f0 2f 65 80 bd d1 83 c7 bd 97 39 8d bd 43 b0 5a bd
       -0.06269299 -0.09741939 -0.0689575 -0.053390753
000300 77 20 aa bd 06 96 99 bc 41 c1 1a be 66 fc ce bd
       -0.083069734 -0.018748295 -0.15112783 -0.10106735
000310 81 14 85 3d 39 02 b7 3d 83 9d 7f 3d cd 2a f6 bd
       0.064980514 0.08935971 0.062406074 -0.12019882
000320 2f 97 74 3d 9c b1 94 bd 13 47 d8 3d f7 79 95 bc
       0.059714492 -0.07260439 0.10560431 -0.018246634
000330 40 58 9c bd 19 e8 af 3d f4 f4 94 bc ad e9 30 3c
       -0.0763402 0.08589191 -0.018183209 0.0107979
000340 52 a3 a6 be 2b 75 0e 3e d4 ec f2 3c 8a 58 08 3e
       -0.3254648 0.13911884 0.029653944 0.13315025
000350 9e ed ac bd 6e 0c 30 3d 0a b2 e6 bd 6d cb 24 3e
       -0.084437594 0.042980604 -0.11264427 0.16093226
000360 d6 7f 95 bd 80 11 1e 3a 00 3d 1d bb a2 d1 dd bd
       -0.072997734 0.00060298294 -0.0023992658 -0.10831
000370 26 89 e8 bd 70 dc eb bb 6a f3 5a bd dc 6b b6 3c
       -0.11354284 -0.007197909 -0.053454794 0.022268228
000380 d4 6a f4 3c 4d be 8c 3d 15 8d 97 3d 8c 67 a4 3c
       0.029836096 0.068722345 0.07399956 0.020068906
000390 52 eb df bd 91 f6 e2 bd a1 2f f0 3d 9c 24 cd bc
       -0.10933556 -0.11082185 0.117278345 -0.02504187
0003a0 11 90 d5 bd 06 41 6d 3d e5 91 80 3d a7 87 de 3d
       -0.10427869 0.05792334 0.06277827 0.108657174
0003b0 ee 00 1f 3d 98 ac 3c 3c 82 b7 de bd 98 af 5a 3c
       0.038819246 0.011515759 -0.10874845 0.013347529
0003c0 9f 96 8b 3d db da de bd c1 a1 9e bd 82 04 53 3d
       0.06815838 -0.10881587 -0.07745696 0.05151797
0003d0 e8 de 01 3c 6a d8 98 bd f8 cc 12 bc 8a 86 6d 3d
       0.00792668 -0.07463153 -0.008960001 0.057989635
0003e0 74 c1 82 3c 31 03 ad 3d bb eb e5 bd ac 0e db bc
       0.015961386 0.08447874 -0.11226603 -0.026740395
0003f0 ba 4e 02 3d 8e 53 20 3d d5 9e df 3d 1c bd 9f bd
       0.03181336 0.039142184 0.10918967 -0.077997416

layer1.bias f4 [64]
000000 d7 c7 0d 3d 3d 60 16 bd 3f d0 32 bd ac f5 e0 bd
       0.03461441 -0.036712874 -0.04365563 -0.10984358
000010 7f 64 a1 be d8 ce 06 3e f0 17 56 3e 44 23 fe 3d
       -0.31521985 0.13164842 0.20907569 0.1240907
000020 d6 d3 76 3d db 56 41 3d 75 12 d1 3d c3 e8 a4 bd
       0.060260616 0.047201972 0.102085985 -0.08052208
000030 7a 81 6a bc 4a d1 11 3d 13 fb cb bc ea c3 97 bd
       -0.014313096 0.035599984 -0.024899995 -0.074104145
000040 ee f1 2d bd 0f 91 9b bd 4b 9d cc bc 51 42 41 bd
       -0.04246705 -0.07596027 -0.024977347 -0.047182385
000050 dd fc 64 bd 18 03 d2 be ca c6 34 3d fe 81 81 bd
       -0.05590521 -0.41017985 0.044134893 -0.06323622
000060 91 4e 73 be ec f1 cf be b8 ac ef bc 39 d1 96 3d
       -0.2376044 -0.4061426 -0.029257163 0.07364125
000070 b0 cf 8a bd 42 b4 f3 3a 86 66 d6 bc c7 d3 b1 3e
       -0.067778945 0.001859315 -0.026171934 0.34731886
000080 f8 02 5f bc 70 6c e8 bd 94 4f 16 bd 4e 63 7e 3e
       -0.013611548 -0.11348808 -0.036696985 0.24842569
000090 f6 e3 92 be 00 4d 2b 3c e7 c3 0c bd 5c 36 ab bd
       -0.28689545 0.01045537 -0.034366515 -0.083599776
0000a0 bf bf 04 3d cc 3c ac bc c3 bf 08 3e 95 b6 9b bc
       0.032409426 -0.021025084 0.13354401 -0.01900796
0000b0 51 09 e9 3b 42 45 c4 bd f1 9c f0 3d 3f 57 c8 3b
       0.0071117063 -0.095835224 0.11748684 0.006113916
0000c0 1c e9 a3 3d c3 3b 01 3e f4 55 b7 bc c5 09 0c be
       0.080034465 0.12620454 -0.022379853 -0.13675602
0000d0 72 7d cc bd fc 66 8c bd 02 84 07 3e 5e c1 08 3d
       -0.09984864 -0.0685558 0.1323395 0.033387534
0000e0 2b b3 93 bd 67 5f 56 bd 5c 70 ea be 9e 63 cc 3d
       -0.07211908 -0.052337077 -0.45788848 0.09979938
0000f0 0e 18 23 bd 60 fd f3 b9 63 2d 10 be 02 e7 d9 bc
       -0.039817862 -0.0004653735 -0.14079814 -0.02659941

layer2.weight f4 [32, 64]
000000 1a c8 f0 bd 3a 1a c9 3d 31 e0 c0 3d c0 ad 64 bb
       -0.11756916 0.098194554 0.09417761 -0.0034893602
000010 e6 e6 94 3e 22 77 0a be f8 a0 93 bd 64 0a b2 bd
       0.29082412 -0.13522008 -0.07208437 -0.08693388
000020 10 7a ac 3d 06 72 ee bd 2a a0 fd 3d 78 3b cf bd
       0.08421719 -0.11642842 0.123840645 -0.10118765
000030 6e ee 75 3d 9b b2 3d bd 50 07 e9 bd 4e ac a3 3d
       0.060041837 -0.04631291 -0.11378348 0.07991849
000040 a0 84 5a bd 7c 66 05 be 61 64 cc bd cf 3c 86 3d
       -0.053349137 -0.13027376 -0.09980083 0.06554567
000050 37 1c 03 3c 88 ed 42 3f a6 61 91 3d a3 e8 36 3d
       0.008002332 0.76143694 0.07098703 0.044655453
000060 ee ec 0b bd 55 a4 95 3e dc af 9a bd 58 24 31 bd
       -0.0341615 0.29226938 -0.07553074 -0.04324755
000070 78 c4 cb 3c bb 34 4a 3d 9e 52 90 bd 6a 88 fb be
       0.024873957 0.049366694 -0.07047008 -0.49127513
000080 a0 3b cf bc d0 ed 39 bd b8 05 dc bd 36 f3 c2 bc
       -0.025296986 -0.04539281 -0.10743278 -0.023797613
000090 bb 3f 18 3e d2 2e ee bd 75 2c 16 3d d3 57 a0 3d
       0.14868061 -0.11630024 0.03666349 0.07829251
0000a0 3c 81 67 3d 3e 21 f1 bd fe 40 5a bd 5d 20 17 3d
       0.056519732 -0.117739186 -0.053284638 0.0368961
0000b0 5e 59 d9 3d 7a 33 8e 3d 80 d6 dc 3b a3 32 e9 bd
       0.106127486 0.06943412 0.0067394376 -0.11386611
0000c0 88 ac b5 bd e7 e1 ff 3c 00 20 1d 3c 03 8d 4e 3d
       -0.08870798 0.031235648 0.009590149 0.050427448
0000d0 84 4f 98 bc b2 28 cb 3d 93 2e a4 3c cd ef a7 3d
       -0.018592604 0.099198714 0.02004174 0.08200035
0000e0 24 98 aa 3d 62 65 75 3d ed 97 c6 3e 97 55 07 be
       0.083298 0.05991114 0.38787785 -0.13216244
0000f0 01 f2 a5 3d 29 0b 02 be 01 76 a2 3d 63 68 2d bd
       0.08102799 -0.1269957 0.07932664 -0.04233588
000100 2a f9 e4 bd 69 61 bf bd 0d 33 e5 bc 80 8e 61 3d
       -0.11180337 -0.093447514 -0.027978444 0.05506754
000110 7c 91 53 3d 8a 7e c1 bd 2a ae 8a 3d 99 0a fa 3c
       0.051652417 -0.094479635 0.067715004 0.030522631
000120 3c 29 c2 3d 67 b0 db 3d f8 3b 18 bd 50 9a ae bc
       0.09480521 0.107270055 -0.037166566 -0.021313816
000130 4c cb 6b bd a9 1d 6a 39 db c5 bb 3d ca 8c e3 bc
       -0.057566926 0.00022327028 0.09168597 -0.027777094
000140 f6 c4 9d bd ed 09 03 be 5e 93 47 3d 5f 2f 55 3c
       -0.07703583 -0.12796755 0.048724525 0.013011782
000150 d4 75 34 bd c6 40 d7 bd 38 79 68 bd d0 b3 cf bd
       -0.044057682 -0.105104014 -0.05675623 -0.101417184
000160 c4 fb d9 3d 70 fd 9a bd e8 72 90 bd 38 11 f9 bd
       0.106437236 -0.075678706 -0.07053167 -0.12161487
000170 48 49 7a 3d c3 99 9d 3d 8e 8f ec bd 92 48 90 bd
       0.061105043 0.07695343 -0.115508184 -0.07045092
000180 88 2a be bc c8 4a 4a 3d e5 0c 50 3a 1a 97 9b 3d
       -0.02321364 0.049387723 0.0007936492 0.0759718
000190 f8 f4 d8 bd d6 c5 a8 bb 2b 80 6c 3d 50 96 88 3d
       -0.10593599 -0.005150537 0.057739418 0.06669295
0001a0 92 d6 63 3c b8 2b a3 3d 4f 3c c0 bd 93 70 b6 3d
       0.013906138 0.07967323 -0.09386503 0.089081906
0001b0 a3 24 83 bd ec a7 df 3d b8 09 c1 bd 49 7c dd 3d
       -0.06403472 0.109207004 -0.09425682 0.10814721
0001c0 52 0a fc bd ad e6 fc bd 7e 9b b3 bd 83 29 e8 3d
       -0.12306656 -0.123486854 -0.08769892 0.11336043
0001d0 70 e6 cb bd 5d d5 f9 bc 14 d0 8c 3d 98 59 f5 bc
       -0.09956062 -0.030497247 0.06875625 -0.029949948
0001e0 d7 f1 12 3d e9 5f b5 3d 88 03 8a bc d8 c6 18 bd
       0.035875168 0.08856184 -0.016847387 -0.037299007
0001f0 c3 15 9a bd 68 d6 ee bd f2 de 40 bd f0 fa 74 3d
       -0.07523682 -0.116619885 -0.047087617 0.059809625
000200 8c f5 bd 3d e5 76 ad 3d 85 c5 3c bd 98 fb 6f 3d
       0.0927535 0.08469943 -0.046086807 0.058589548
000210 a4 18 f7 be 96 f6 34 3e d2 e9 dd 3d 62 55 97 3d
       -0.48260987 0.1767219 0.10835613 0.07389332
000220 c6 42 9c 3d 75 cd b7 bc a6 5b cd bd 87 9c 39 bd
       0.076299235 -0.022436837 -0.10027246 -0.04531529
000230 9f 5d 0f be d4 b2 2e 3d e9 7d b5 bd 2a 0b e9 bd
       -0.14000557 0.042651013 -0.08861906 -0.113790825
000240 70 a9 7d 3d 90 54 f6 3c 0f f5 8a 3d 13 a1 e1 bd
       0.061929166 0.03006962 0.067850225 -0.110170506
000250 96 3e ab 3d 3a 03 1e bf 9c 94 6e 3d 49 65 a5 3b
       0.08361547 -0.61723673 0.058247194 0.0050474745
000260 d3 c5 a8 3d 81 59 b5 be b6 e8 84 bd 04 a4 5c 3d
       0.08240857 -0.3541985 -0.064896986 0.053867355
000270 a2 62 fd bd 40 1e cf 3d a4 27 bf bc 14 98 01 3f
       -0.12372328 0.101131916 -0.023334332 0.5062268
000280 ea d0 e7 bd 46 10 bb 3d c9 2b 0a bb b4 98 1a 3e
       -0.11319144 0.09133963 -0.0021083227 0.15097314
000290 4d 14 f7 bd be 26 a8 3d 84 8e ac 3d 77 4c 4d bc
       -0.12064419 0.082105145 0.0842562 -0.012530438
0002a0 31 6c cc 3c 62 34 d9 3d 90 e9 8b bd e9 81 5d 3c
       0.024953933 0.10605694 -0.06831658 0.0135197425
0002b0 50 08 10 3d 7e 06 e0 3d f0 d6 c7 3d 01 67 74 3d
       0.035164177 0.10938738 0.09757793 0.059668545
0002c0 29 0b 97 bd ee 11 53 3d 84 51 26 bd de c6 d7 3c
       -0.073751755 0.05153077 -0.040605083 0.026339944
0002d0 dd 9f f2 bc 1b db 02 3e 45 67 12 3d 14 01 04 3e
       -0.029617244 0.12778895 0.035743017 0.12891036
0002e0 df 4b a9 bc 7d 1d cc 3d 14 7d f2 be 29 ee e5 bd
       -0.020666061 0.09966562 -0.47361052 -0.11227066
0002f0 8d 66 cc bc 73 68 b0 bd 7a 51 3f 3d 0a 4a f4 bd
       -0.024951244 -0.08613672 0.04670856 -0.11928184
000300 73 28 9b 3c 80 f0 da bb b0 7e 03 bd 9e f5 dd bd
       0.018940186 -0.006681502 -0.03210324 -0.108378634
000310 14 9d 64 bd d2 11 a0 3c 8f eb 8d 3d 01 4a 03 be
       -0.055813864 0.019539747 0.06929695 -0.12821199
000320 aa cd 90 3d f4 56 3a 3c 9a c9 bb 3d 70 58 f0 bc
       0.07070477 0.01137327 0.09169312 -0.029339045
000330 5b f8 d6 3c d1 be 4f 3d ee 62 ab bd b0 38 a2 3d
       0.026241472 0.050719086 -0.08368479 0.079209685
000340 68 f4 9a bd 5e 31 de 3d c8 84 9d bd b6 d9 ff bc
       -0.07566148 0.1084926 -0.07691342 -0.031231742
000350 3e e2 c3 3d b1 70 a3 3d a2 ef f6 bd 27 76 27 3d
       0.09564637 0.079804786 -0.12057425 0.040884163
000360 26 29 b0 bd d2 35 d2 3d 34 0a 1f 3d 2c 02 1a bd
       -0.086015984 0.10264172 0.03882809 -0.037599728
000370 98 75 7b 3d 12 93 f1 3c a8 b5 37 bd 16 11 87 3c
       0.061391443 0.029489074 -0.044850975 0.01648764
000380 b0 5b a1 3c 0a f2 fe bd 86 0a 85 bd ac 2e ad 3d
       0.01969704 -0.12448509 -0.06496148 0.084561676
000390 ef 7e b3 bd 20 8b 31 3d e0 17 79 bc 20 65 b6 3b
       -0.08764445 0.04334557 -0.015203446 0.0055662543
0003a0 34 83 e3 bd 50 ea 94 bd 4c c8 87 bc d6 f9 b3 3d
       -0.111090094 -0.07271254 -0.016575001 0.08787887
0003b0 93 be 9c 3c aa e3 b3 3c 02 38 eb 3d 98 6b 07 be
       0.019133842 0.021959145 0.11485292 -0.13224638
0003c0 27 c8 74 3d a6 a2 3b bd 28 be f8 bd a8 76 ae 3d
       0.059761193 -0.04580941 -0.121456444 0.08518726
0003d0 21 03 28 bd 3b 70 d5 bd f2 3c 9c bd a2 36 aa bd
       -0.04101861 -0.10421797 -0.07628812 -0.08311202
0003e0 f6 e7 84 3d e0 30 57 bd 0a f6 5f bd 38 e9 9d bd
       0.064895555 -0.052536845 -0.054678 -0.077104986
0003f0 95 ec ca bd ad 0b 47 3c b8 29 ed bd fb 24 a4 bd
       -0.09908406 0.01214878 -0.11580223 -0.08014866

layer2.bias f4 [32]
000000 90 38 bf 3d 37 65 73 3d 8c 0b 99 bd a5 d2 e4 bd
       0.0933696 0.059422698 -0.074729055 -0.1117299
000010 b2 3a ee bd d2 3f c0 3d ac fb b2 3d 8f f8 99 bd
       -0.11632289 0.09387173 0.08739409 -0.07518112
000020 4d 43 87 bd 06 70 15 bd 00 0f de bd 77 97 e1 bd
       -0.066046335 -0.036483787 -0.10842705 -0.11015218
000030 bc 3d 0e 3e 00 42 c2 3d cb e4 de bc 5d 2b a4 bb
       0.13890737 0.09485245 -0.027208706 -0.005010052
000040 62 1b 02 be 58 a6 35 bd 84 8a c4 bd 6f 07 df bb
       -0.12705758 -0.04434809 -0.09596732 -0.006806306
000050 d1 1d 81 3d a0 af d1 3c 15 40 68 3d b0 bf fc 3c
       0.06304515 0.02559644 0.05670174 0.030853122
000060 54 06 ef bd 52 2b e8 3d 9b 48 8a 3d 46 98 b3 bd
       -0.11671129 0.11336388 0.0675213 -0.08769278
000070 53 91 f4 bb 69 24 a4 bc e6 79 d1 3d a8 49 12 3d
       -0.007463613 -0.020036893 0.102283284 0.035714775

output.weight f4 [1, 32]
000000 f1 56 1f 3e 61 2e e1 3d 82 11 0c be 19 72 60 3d
       0.1556051 0.10995174 -0.13678554 0.054796312
000010 61 6d bf 3d 79 ad 1d 3e 2e ce 86 bd 27 c5 b3 bc
       0.09347034 0.15398206 -0.065822944 -0.021944596
000020 ec f2 d1 3d b3 93 09 be 8b 5f 17 3d 63 80 1c 3e
       0.10251412 -0.13435249 0.03695635 0.1528335
000030 27 17 a1 bc 76 7b f5 bd 6f bc a4 bd f3 b6 e4 3d
       -0.01966436 -0.11986439 -0.08043753 0.11167707
000040 8b 75 8e 3f df ba a7 bf b0 2d b8 3e 93 5e 40 bf
       1.1129621 -1.3103904 0.35972357 -0.7514431
000050 57 60 32 3e 15 97 08 be 9e b0 88 bd ce 7e a0 bd
       0.17419563 -0.13338883 -0.06674312 -0.07836686
000060 ba 96 f1 3d 8c d8 2d be cf 8a c8 bd 32 11 c3 3c
       0.11796327 -0.16977137 -0.09792101 0.02381191
000070 c3 1e 7d 3d c9 fa 23 3d 7c 9b 15 bd 30 e5 31 bc
       0.061796915 0.04003409 -0.036525235 -0.010857865
