overunder_model.pth (torch, 511640 bytes, 5 tensors)

layer1.weight f4 [64, 1954]
000000 9b 0c 99 bc 7f a2 87 3b dc ec d9 bd e0 55 0f 3d
       -0.018682769 0.004139244 -0.106408805 0.034994006
000010 04 aa 14 3d 56 e0 1f bd 80 8d 4b bc 5b de 1f bd
       0.036294952 -0.039032303 -0.012423873 -0.039030414
000020 00 2d 36 3d 12 03 e4 bc 40 74 19 bd 50 c7 0e bd
       0.04447651 -0.027833495 -0.03746438 -0.034858048
000030 4e 0a 47 bd a8 6b 09 bd 70 5b 2c 3d d9 02 a6 bc
       -0.04859381 -0.033549935 0.04207939 -0.02026503
000040 9e 24 08 bd 2e 69 40 bd bc 80 ca 3c 40 c0 df 3a
       -0.033238046 -0.046975307 0.024719588 0.0017070845
000050 2d 65 65 3d 8a bb 17 bd 64 d2 21 3d e7 79 4e bd
       0.056004692 -0.037044086 0.039507285 -0.050409224
000060 2a 31 66 bd 30 ce 1f 3d fa 66 f7 bc f6 6a 92 bc
       -0.05619923 0.039014995 -0.03020047 -0.017873269
000070 f2 10 1e bd 70 71 6e bc 90 f1 38 3d 9c bb c0 bc
       -0.03859038 -0.014553413 0.045152247 -0.02352696
000080 f6 4a db bc 0a 71 16 3d ca 26 54 3d 58 af 96 3c
       -0.026769143 0.036728896 0.051794805 0.018394157
000090 a8 35 a9 3c 59 bd 32 bd 1c 99 47 3d 4c 4a 1e bd
       0.020655468 -0.043637607 0.04873 -0.038645074
0000a0 10 01 6a bc 08 3b e6 3b 30 c9 8e 3b de 1c f6 bc
       -0.01428248 0.00702608 0.0043574795 -0.030043062
0000b0 4c f1 5b 3d ae f3 9c bc 06 e4 b2 bc 4a 82 8c bc
       0.053696916 -0.019159164 -0.021837246 -0.01715197
0000c0 ed 9d dd bc b8 f7 42 3c 5e 2b 4e 3d a0 19 21 3b
       -0.027052844 0.011899881 0.050334327 0.0024581924
0000d0 e0 a6 c2 bb ef 9e 27 bd a4 c8 1c bd 78 1b 43 3c
       -0.005940303 -0.040923055 -0.038277283 0.0119084045
0000e0 28 3f 32 bd 5d c2 c3 bc 2c 74 13 bc 72 87 f9 bc
       -0.04351726 -0.02389639 -0.0089998655 -0.030460093
0000f0 92 32 2e 3d d8 a1 5f bc d4 ee 0f bd fc 8f 6f bc
       0.042528696 -0.013649426 -0.035139874 -0.014621731
000100 45 b9 00 3b 19 8b c3 bd d0 ff 86 3b fe 55 8a bb
       0.001964168 -0.09548015 0.0041198507 -0.004221677
000110 78 2c 02 bc 1c 07 4c 3d 54 f1 cc 3c cf c6 57 bd
       -0.0079451725 0.049811468 0.025017418 -0.052679833
000120 4e db 25 bd 9d 0d 5b bd 04 84 1d 3d ab f9 e6 bc
       -0.04049235 -0.05347978 0.038455978 -0.028195223
000130 e4 39 87 3c f8 1e 56 3c c2 9e 2d 3d 40 9f 17 bc
       0.016507097 0.013068907 0.04238773 -0.009254277
000140 83 e1 41 bd d0 c2 2d 3c 50 97 b5 3b 16 a5 13 3d
       -0.047334205 0.010605529 0.0055417195 0.03604611
000150 10 10 10 3d 06 76 d2 bc 54 34 b0 3c e0 bf 31 3d
       0.03517157 -0.025691044 0.021509327 0.043395877
000160 b1 70 21 bd 2e 49 29 3d 32 da 53 3d 90 d7 e4 bc
       -0.03941411 0.041329555 0.05172176 -0.02793482
000170 62 ec 21 3d a2 4e 13 3d 6c 93 05 3d cc 60 aa bd
       0.039532073 0.035963662 0.032611296 -0.08319244
000180 e0 5b f5 3c b0 de 56 3c f4 32 e6 3c 00 da 47 39
       0.029951036 0.013114616 0.028100468 0.0001905933
000190 e8 e7 16 bd 58 21 3b 3c 68 68 43 3c 10 30 96 3c
       -0.036842257 0.011421524 0.011926748 0.018333465
0001a0 80 89 81 3b cb 05 11 bd 02 da 06 bd 20 b5 95 3c
       0.003953159 -0.035405915 -0.032922752 0.018274844
0001b0 80 92 88 3c e0 aa e6 3c fb 07 5f bd 25 87 df bc
       0.01667142 0.028157651 -0.05445097 -0.027286122
0001c0 32 bb 1a 3d f7 95 51 bd 8e fb 45 bd 7c 6d 02 bc
       0.03777618 -0.05116841 -0.048335604 -0.007960673
0001d0 24 f1 25 3d 24 32 ad 3c 6e 27 33 bd 54 f4 2c 3d
       0.040513173 0.021142073 -0.043738775 0.042225197
0001e0 94 f2 c9 3c 6a 0a 48 3d 86 40 17 bd 2d 70 28 bd
       0.024651803 0.048838057 -0.03692677 -0.041122604
0001f0 da 31 08 3d a0 5e cf ba d0 3c 14 bb be 01 55 bd
       0.033250667 -0.0015821047 -0.0022619255 -0.052003615
000200 7b fb 53 bd 50 79 be 3c b8 64 5a bc fb 7d e7 bc
       -0.051753502 0.023251206 -0.013329677 -0.028258314
000210 f8 26 80 3b a4 ab 6a bd 26 6d 22 3d 6f be 31 3c
       0.0039108954 -0.057292596 0.039654873 0.010848626
000220 f0 58 05 3d 10 1e 12 3b ab aa d2 bc 20 d7 fd ba
       0.03255552 0.002229575 -0.025716146 -0.001936648
000230 f4 b5 82 3c a0 a7 ea 3c c8 69 4c 3c 60 3a a9 bb
       0.015955903 0.028644383 0.012476392 -0.0051644295
000240 75 0d 41 bd 88 88 a8 3c 60 82 64 3c 98 cc 83 bb
       -0.047131974 0.020572916 0.013947099 -0.004022192
000250 f4 56 62 bc ee a9 4c bd fc 67 1e bd a8 e4 f2 bc
       -0.013814677 -0.049966745 -0.038673386 -0.029650047
000260 ba 47 2d 3d 92 ba 57 3d dc 9a ab bc 98 22 61 3c
       0.042304732 0.05266816 -0.020947866 0.013741158
000270 92 d0 02 3d 9a d7 45 3d 03 e2 be bc 58 ca de bc
       0.03193719 0.048301317 -0.02330113 -0.027196094
000280 80 f2 ef bc a4 ab 54 3d 20 c0 0f bc 22 b7 03 3d
       -0.029290438 0.0519215 -0.0087738335 0.03215707
000290 04 4a 95 bc 58 99 68 bc d8 61 b2 bb 80 d0 c7 3b
       -0.01822377 -0.014196716 -0.005443793 0.006097853
0002a0 e2 35 52 3d 48 7e 43 bc 0b b6 ca bc 20 96 24 3c
       0.051320918 -0.011931963 -0.024745008 0.010045558
0002b0 c2 79 0b bd 7d 6f a6 bc 20 95 36 bc 9e 70 04 3d
       -0.034051664 -0.020316834 -0.011143953 0.032333963
0002c0 f0 85 8a 3c f0 1c 86 3b e5 f9 97 3d 64 3e 4a bd
       0.01690957 0.004092805 0.074207105 -0.049375907
0002d0 e1 da 2a bd 46 7c 1f bd ee 56 5f 3d 4c 2e 4f 3d
       -0.041712645 -0.038936876 0.054526262 0.05058126
0002e0 24 52 07 3d 86 a0 42 bd 5e 1a 17 3d 99 70 af bd
       0.03303732 -0.04751637 0.03689038 -0.08566398
0002f0 88 cd 0a 3d b4 57 94 3c b2 ab cc bc 70 52 40 3b
       0.033887416 0.018108226 -0.024984214 0.0029346012
000300 54 27 2d bd 44 fe 27 3d 88 a4 f1 3c 40 7d cd ba
       -0.042273834 0.04101397 0.0294974 -0.0015677586
000310 18 3b 37 3d 7f 10 59 bd 38 92 32 3c 10 5f 0f 3c
       0.04473409 -0.052994248 0.010899119 0.008750692
000320 0a cd 8b bc 10 26 0d 3d d0 84 20 3c 50 bd f7 3c
       -0.017065544 0.034460127 0.00979729 0.030241638
000330 7a 80 83 bc cc a4 3a 3d 0e d9 39 3d ac 14 6c bc
       -0.016052473 0.04556732 0.045373015 -0.014409225
000340 90 0b 40 bb 90 31 19 3d 40 2f a2 bb 44 4e 0e 3d
       -0.0029303767 0.037400782 -0.0049494803 0.03474261
000350 88 be 9d 3c 40 52 e4 bb 7d 1d 16 bd 22 98 8c bd
       0.019255891 -0.006967813 -0.036649216 -0.068649545
000360 ea 64 3d 3d 32 2a a5 bc 82 81 33 3d 32 ea 3a bd
       0.046238817 -0.020161722 0.04382468 -0.045633502
000370 99 cf 87 bd ac 20 b3 3c 9e ff 43 3d 30 63 ce bc
       -0.06631393 0.021866165 0.047851197 -0.02519378
000380 87 9c cf bc 74 fb 53 bd a4 c5 8d 3c 54 5d 10 3d
       -0.025343193 -0.051753476 0.017306156 0.035245255
000390 8d 69 ea bc c0 b9 36 bc 40 78 48 3c b8 6b 4f bc
       -0.028614784 -0.011152685 0.012235701 -0.0126599595
0003a0 70 bf ed 3c fe 4e 01 bd ec 04 23 bc aa 01 41 3d
       0.029021949 -0.031569473 -0.009949904 0.047120728
0003b0 3c bf 0c 3d 40 d5 5c bd b1 f8 56 bd a4 30 f4 3c
       0.034362063 -0.05391431 -0.052483264 0.02980835
0003c0 b4 56 fb 3c 26 1e 46 3d 55 73 04 bd 52 26 4f 3d
       0.030680992 0.048368596 -0.03233655 0.050573654
0003d0 f4 64 e9 bc a2 b6 33 3d 57 84 fe bc d5 fc ca bc
       -0.028490521 0.043875344 -0.031068964 -0.024778763
0003e0 ec 85 30 3d 70 aa c2 3c d0 f9 b5 bc c0 6f 58 bd
       0.043096468 0.023762912 -0.022213846 -0.052840948
0003f0 58 6b 5a bc 90 77 8f bb 94 bb 09 bd c9 95 56 bd
       -0.013331257 -0.0043782666 -0.033626154 -0.05238894

layer1.bias f4 [64]
000000 74 78 9f 3b 96 70 35 bd 8f 9f 1b bb bd 82 0e 3d
       0.004866654 -0.044296823 -0.0023746227 0.03479265
000010 00 00 00 00 b1 62 6a 3c 33 13 2d bd ee ff 4c 3d
       0.0 0.014305756 -0.042254638 0.05004876
000020 00 00 00 00 93 4e e4 3c f7 d1 1c 3d cc 73 1f 3d
       0.0 0.027869498 0.038286176 0.038928792
000030 7d 01 ce 3c 73 cd 55 bc d9 92 2b 3d e8 95 a0 3b
       0.025147194 -0.013049471 0.04188809 0.0049006827
000040 46 6e 27 3d 2b 62 05 3d 84 f3 2b bd 87 f4 1d 3d
       0.04087665 0.032564323 -0.04198028 0.038563278
000050 07 5c 81 3c 67 06 2f bd 91 d8 ef bb 69 80 27 bd
       0.015790952 -0.042730715 -0.007319518 -0.040893946
000060 79 75 1b 3d 00 00 00 00 5c 4b 44 3d 4f 2c 52 bd
       0.037953828 0.0 0.04792343 -0.051311787
000070 47 54 27 3d 4b 3d 29 bd 00 00 00 00 00 00 00 00
       0.040851858 -0.04131822 0.0 0.0
000080 63 46 29 3d 01 1c b2 bb c4 32 64 bb 00 00 00 00
       0.04132689 -0.005435467 -0.0034820298 0.0
000090 63 0e 27 3d 8f 91 25 bd 5d b9 20 bd d5 4f d2 ba
       0.040785205 -0.04042202 -0.039239276 -0.001604552
0000a0 88 c5 24 3d 05 56 a1 3c e5 ba 1f 3d 58 31 48 3d
       0.040227443 0.019694338 0.038996596 0.048875183
0000b0 d8 fb 9e 3c 4f 7b 3b bd 96 e9 27 3d ff 92 90 3c
       0.019407198 -0.045771893 0.04099425 0.017648218
0000c0 14 23 2c bd 4f 8c 27 bd ee 40 3e 3d 56 eb 73 bb
       -0.04202564 -0.040905293 0.04644864 -0.0037219129
0000d0 00 00 00 00 0f 69 a1 3a ce e6 d2 3a f6 86 32 bd
       0.0 0.0012314635 0.0016090514 -0.04358574
0000e0 00 00 00 00 eb 86 29 3d 92 ba 24 3d 51 40 93 3c
       0.0 0.041388433 0.04021699 0.017975004
0000f0 68 70 28 bd 01 6b 13 bd 98 20 a5 3c 99 71 95 b8
       -0.041122824 -0.03599072 0.020157143 -7.126033e-05

layer2.weight f4 [32, 64]
000000 d6 c1 9c be 99 5a c2 3d 56 64 1a 3e 21 90 82 3e
       -0.30616635 0.094899364 0.15077338 0.25500587
000010 c8 45 f6 bd 10 ac 33 bd 3c 39 9a bd c9 d2 02 bd
       -0.120250285 -0.043865263 -0.07530448 -0.0319393
000020 7a 1e 7e 3e a1 a8 41 be 5a b7 ae bc a5 cc 67 3e
       0.24816313 -0.18911983 -0.021327663 0.2263666
000030 9b cf b4 3d 22 04 11 bd ea 13 8d 3c bd 83 92 be
       0.0882866 -0.035404332 0.01722141 -0.28616133
000040 38 5c 73 3e 20 31 94 bd 84 6d db bc 53 12 94 3d
       0.23765647 -0.07235932 -0.02678562 0.072300576
000050 f6 be 5f 3e bd 39 ae bc 5e ce 07 3e 93 fa 89 bd
       0.2185019 -0.021267766 0.13262317 -0.06737246
000060 dd 57 0e 3e cc ff c0 bd 8e d2 8f 3e b4 63 71 3e
       0.13900705 -0.094237894 0.28090328 0.2357319
000070 6f 80 fd 3d 27 d1 05 be 8e 73 7d be a8 41 98 3d
       0.123780124 -0.13068067 -0.24751112 0.07434398
000080 35 f8 0a 3e 5a ce 2b be e0 f8 14 3e c4 fe 09 be
       0.13571246 -0.16777936 0.14548063 -0.13476092
000090 fa bf 70 3e bc 85 50 be 1e 33 1a 3e 21 4b 46 be
       0.23510733 -0.20363516 0.15058562 -0.19364597
0000a0 b4 69 eb 3d f1 0c bf 3d 14 35 32 3e f5 01 2c 3e
       0.11494771 0.0932864 0.1740306 0.16797622
0000b0 d3 8f 09 bd aa a8 e4 3c e2 28 1b 3e 11 8b 7d 3d
       -0.033584427 0.027912457 0.15152314 0.061900202
0000c0 77 29 87 3d 08 34 78 be e7 1c 7f 3e 8f 0c 14 3c
       0.06599706 -0.24238598 0.24913369 0.009036197
0000d0 6a 79 7e 3e f2 85 5c 3e 95 8d 97 3e 87 e7 1c be
       0.24851003 0.21535471 0.29600206 -0.15322696
0000e0 c2 ea 16 be d3 05 5b be 93 33 3a 3e 7b b8 b2 3d
       -0.1473799 -0.2138894 0.18183737 0.08726593
0000f0 45 04 c9 bc 0e 45 41 be 04 0d 03 bd 48 46 b3 bc
       -0.024538169 -0.18873999 -0.031994835 -0.021884099
000100 2d dd c7 3d b3 3a 13 be 42 ea 87 be a6 1e 5b 3e
       0.09758983 -0.1437786 -0.26545912 0.2139841
000110 22 54 68 3e c0 42 b6 bc b4 f7 c5 3d 53 03 55 bc
       0.22688344 -0.022248626 0.09666386 -0.013001281
000120 d8 9f 5c 3d f5 c7 2d 3e d9 4f 08 bd 54 ef 2d 3e
       0.053863376 0.16970809 -0.033279274 0.16985828
000130 4e 6d 37 3e 4f 85 15 be a8 0c 6d 3e a8 36 4c be
       0.1791279 -0.14601634 0.23149359 -0.19942725
000140 92 75 5b 3e 9d e7 58 3e bb 5f 35 3e e2 bb 75 3e
       0.21431568 0.21182103 0.177123 0.23997453
000150 92 9c 9b 3e 7b 79 f7 3d 93 47 75 3e f1 56 aa 3c
       0.3039289 0.120837174 0.23953085 0.02079341
000160 99 63 6f be bc 82 7b 3e b7 dd ff 3c 65 e6 63 3e
       -0.23377837 0.2456159 0.031233652 0.22255857
000170 81 57 53 3e c5 9b d4 3d 58 42 0c 3d aa cc 72 3e
       0.20638849 0.10381273 0.034242958 0.23710886
000180 49 bf c3 bc 01 ea 2a bc 09 08 3f be f6 bc 5c be
       -0.023894923 -0.010431767 -0.18655409 -0.21556458
000190 5c 8e 22 3e 15 3c 1b be 1c c7 d6 bd 1f 9f 6c be
       0.15874618 -0.15159638 -0.10487196 -0.23107575
0001a0 e4 e2 3e be a3 35 88 3d 24 5b c0 bd 09 48 71 3e
       -0.1864124 0.066508554 -0.09392384 0.23562635
0001b0 a1 9a 76 be 6d d4 7b be dd 1e cc 3d 1e d9 63 3e
       -0.24082424 -0.24592753 0.09966824 0.22250792
0001c0 ae 48 50 3d 03 25 bd bc 81 51 9c 3e db 42 21 bd
       0.050850563 -0.023088938 0.30530933 -0.0393704
0001d0 9c 88 20 be 58 5e 07 be 3a 34 57 3c da 86 08 be
       -0.15677112 -0.13219583 0.01313501 -0.13332692
0001e0 40 f2 cc bb 6a 2d 31 be 99 8a 80 3d c4 ed fe 3d
       -0.0062544644 -0.1730248 0.062764354 0.12447694
0001f0 16 65 85 be 40 60 79 3e f9 5d 84 3e bf a8 e7 3d
       -0.26053685 0.24353123 0.25852945 0.11311483
000200 4c 8e 60 be 1d 48 9c bd fa 55 c0 bd b6 d6 09 3d
       -0.21929282 -0.07630942 -0.09391399 0.03365203
000210 00 86 a9 3c 60 17 54 3e 52 9c 88 bd e3 dd 88 be
       0.020693779 0.20712042 -0.06670441 -0.26731786
000220 b0 b6 99 3c c9 14 16 3e e0 76 35 3e 95 43 36 3e
       0.01876387 0.14656366 0.17721128 0.17799218
000230 28 c4 ba bd 9d e0 f2 bc 9b 9a 35 be ab c8 16 be
       -0.09119445 -0.02964812 -0.17734759 -0.14724986
000240 cf cc 10 3e ad c3 19 be 0a 60 44 3e 1e eb c8 bc
       0.14140628 -0.1501605 0.19177261 -0.024526175
000250 28 de d1 bb 25 87 33 be 5f 8d 9f 3d c0 8c 9c bc
       -0.006404657 -0.17532022 0.07790636 -0.019110084
000260 7f 82 01 be 04 3d 73 be 0a 5e f3 bd d0 a7 0e 3e
       -0.12647437 -0.23753744 -0.11883171 0.13931203
000270 8a 0a ba bd 9c 45 66 3e 70 99 0d 3d 4c 9e 06 be
       -0.090840414 0.22487491 0.034570158 -0.13146323
000280 bf 23 b8 3d 99 db 66 bd 41 79 c5 bb 44 09 2d be
       0.08991193 -0.05636177 -0.0060264175 -0.16898066
000290 3a 94 59 be 26 46 47 3d 56 1c 00 3d 81 bf 70 3e
       -0.2124795 0.048650883 0.031277023 0.23510553
0002a0 ef 66 fc 3d 2b 60 48 3d e9 35 40 3e 7a c3 17 be
       0.123243205 0.048919838 0.18770565 -0.14820662
0002b0 27 a7 1b 3e 32 dc 28 3e e0 7d fa bd 0b 2f 90 3d
       0.15200482 0.16490248 -0.1223104 0.07040223
0002c0 42 4a 5e 3d 7c 1e 65 bc be 9e c1 bd f0 44 e4 bd
       0.054270037 -0.013984319 -0.09454106 -0.11145961
0002d0 6c c3 88 bd ed e9 85 3c 68 83 66 3e 57 a6 fd bd
       -0.06677899 0.016346896 0.22511065 -0.123852424
0002e0 46 01 18 be aa 59 91 3d 5a 35 a9 bd dc c9 a8 3c
       -0.14844236 0.0709718 -0.08262129 0.020604067
0002f0 3c 1e 23 be 73 c0 6b 3e 8d 41 81 be 55 20 65 bd
       -0.15929502 0.23022632 -0.25245324 -0.055939037
000300 41 ba d7 3d 03 68 da bd 50 9f 15 3e b9 07 df bd
       0.10533572 -0.1066437 0.14611554 -0.10890145
000310 46 22 59 3e 67 63 97 be 93 35 fd bc 50 ec c3 bc
       0.2120448 -0.29568025 -0.030909335 -0.023916394
000320 08 bf 3a bd 5a 2b 8c 3e fb a4 56 be f8 3a 10 3e
       -0.045592338 0.27376825 -0.20961373 0.14084995
000330 54 b7 cf bd 1b 04 ff bd 4a b7 18 3e 84 dd 34 3e
       -0.10142389 -0.12451955 0.14913669 0.17662627
000340 ca bb 36 3e b3 ac 51 be 38 07 e7 bd 6d 35 8a bc
       0.17845073 -0.20476036 -0.11280674 -0.016871179
000350 d6 3b 8b be 30 e2 1b be 10 44 80 3e 38 7c 72 3e
       -0.2719409 -0.15223002 0.25051928 0.23680198
000360 db 61 84 3d 44 88 0b be 16 af 76 be 9f 3c 19 be
       0.06463977 -0.136262 -0.24090227 -0.14964531
000370 90 5b 13 bd 2f 16 0f be 94 35 ab 3d 80 1b 49 bb
       -0.035975993 -0.13973306 0.083598286 -0.0030686557
000380 6c 36 4b be 9b 39 0b 3e 4c 38 98 3e 00 68 44 3d
       -0.19844979 0.13596193 0.2973045 0.047950745
000390 80 96 bf 3c 8f 3d 5a 3e 87 cc 16 3e 19 5a 2b 3e
       0.023387194 0.21312545 0.14726458 0.16733588
0003a0 c7 08 7f be 9c b9 50 be 10 ca 52 be 26 ab 9e 3d
       -0.24905692 -0.20383304 -0.20584893 0.07747488
0003b0 9c dd 96 3e b0 15 93 3e f0 7a d8 39 56 6b 1f 3b
       0.2946595 0.28727484 0.00041290326 0.0024325452
0003c0 4c e5 1e 3e 38 31 52 3e 11 cb 91 bd 48 a5 73 be
       0.15517157 0.20526588 -0.0711881 -0.23793519
0003d0 7a ef 5f be 79 6e 1b 3e ff 09 8e be 83 a1 27 3e
       -0.21868697 0.1517886 -0.27742 0.16370206
0003e0 00 6a 1c bc 59 71 4e 3e 66 81 f4 bd 2e b6 0f 3e
       -0.009546757 0.20160426 -0.11938743 0.1403434
0003f0 6d 5f 3f bd 72 a8 8e be b3 a0 c9 bd f3 b2 a2 be
       -0.046721864 -0.2786289 -0.09845104 -0.31777152

layer2.bias f4 [32]
000000 3a d9 1e 3d c4 d1 1d 3d ee 3f 1e bd 90 d8 52 3c
       0.038781382 0.038530126 -0.038635187 0.012869015
000010 83 24 b5 3c 23 50 36 ba e6 b0 1e bd 1a 1d 22 bd
       0.022112137 -0.00069546903 -0.038742922 -0.039578535
000020 36 3a 1e 3d 3f 8d 1e bd b1 70 1c 3d 00 00 00 00
       0.038629733 -0.03870892 0.03819341 0.0
000030 31 10 1f 3d dc be 22 3d f7 26 21 bd 13 34 1f bd
       0.0388338 0.0397328 -0.0393438 -0.03886802
000040 21 0b 24 3d a1 d9 ac ba f0 47 21 bd de 9a 1f 3d
       0.040049676 -0.0013187417 -0.039375246 0.038966052
000050 18 c2 1d 3d 2e 2e ad bc a5 bf 20 3d 00 00 00 00
       0.03851518 -0.021140184 0.039245266 0.0
000060 b7 4c 3a 3d 2d 9a 3d bb 00 00 00 00 94 a1 0d 3c
       0.045483317 -0.0028931007 0.0 0.00864448
000070 fa 4c 1f bd 47 26 1f 3d 00 00 00 00 7c 86 2d bd
       -0.03889177 0.038854863 0.0 -0.042364582

output.weight f4 [1, 32]
000000 64 04 b4 be a7 2d 80 be 67 60 d7 3e 23 6b c6 3e
       -0.351596 -0.2503483 0.42065737 0.38753614
000010 62 08 b0 3e a1 18 a8 be 98 56 92 3e d5 a4 2d 3e
       0.34381396 -0.3283129 0.2858169 0.1695741
000020 93 ed db bd fe 8f 76 3e 0c 0e 07 be d0 c6 4b 3d
       -0.10738673 0.24078366 -0.13188952 0.04975015
000030 2f c3 dd be 70 dd d7 bc a8 f0 a0 3e 75 65 0d 3e
       -0.43312976 -0.026350707 0.31433606 0.13808234
000040 63 d9 20 be 53 b7 88 be 9c 3b cf 3e 13 89 db be
       -0.15707926 -0.26702365 0.40475166 -0.42878017
000050 f6 e2 b2 be 9a 50 f9 3c 2f 47 26 be 20 59 71 bc
       -0.34938782 0.030433942 -0.16238092 -0.014730722
000060 8e 09 a8 be 94 5a 7b 3e 08 f9 5f 3d 3a 9a ef be
       -0.3281979 0.24546272 0.054680854 -0.46797353
000070 f5 fd 37 3e 43 e6 a1 be f0 7c c5 3d f2 32 bd 3e
       0.1796797 -0.31620988 0.096429706 0.3695293
