over_under_model.pth (torch, 29090 bytes, 5 tensors)

layer1.weight f4 [64, 69]
000000 fc eb d1 bc 20 67 05 bd b6 84 0a be 71 97 0d 3c
       -0.025625221 -0.03256905 -0.13527188 0.0086420635
000010 00 e0 45 3d 43 d4 1b be de 7d 31 3d 50 5a 85 bd
       0.048309326 -0.1521769 0.043332927 -0.06511366
000020 69 81 c2 bc c2 24 56 bc af 02 d2 3c bb 72 4e bd
       -0.023743348 -0.013070287 0.025636045 -0.050402384
000030 9b 1b a2 3d 1e b9 72 bd df 22 d6 3b 47 83 aa bc
       0.079154216 -0.059258573 0.0065349187 -0.020814551
000040 48 58 f8 bc ca 1c 4f bc 7e 4c 90 3d 14 8c e3 bd
       -0.030315533 -0.012641141 0.0704584 -0.11110702
000050 af 05 14 bc e6 75 5b bd 52 a9 13 bd a4 5a 1f be
       -0.009034558 -0.053579234 -0.03605015 -0.1556192
000060 47 a9 7d bd 4e 95 46 ba 64 04 2f 3d 4a 9a d8 bd
       -0.061929014 -0.0007575349 0.042728797 -0.10576303
000070 ae b9 e5 bd 3b 82 18 3d a2 cc c3 bd aa c3 75 bd
       -0.11217056 0.037233572 -0.09560515 -0.060001053
000080 80 5b 46 3c 40 d0 06 be ed 23 fa 3b d6 bc 20 bc
       0.012106776 -0.13165379 0.007633677 -0.009810647
000090 4a e9 a0 bd 96 60 26 be ba 83 d9 bd 13 38 e7 bd
       -0.07856996 -0.16247782 -0.10620828 -0.11289992
0000a0 ab 49 d4 3b 00 22 a7 bd af 9b 74 3d 28 97 88 3d
       0.0064785085 -0.08160782 0.059718784 0.06669456
0000b0 65 f2 0c be 61 5a ef bd 6b e4 42 3c 38 04 8d bd
       -0.13764341 -0.1168716 0.011895279 -0.0688557
0000c0 b8 19 ea 3c 82 63 3f 3d a2 86 08 be d5 21 b9 bd
       0.028576717 0.046725757 -0.13332608 -0.09039656
0000d0 ba ad 36 bd 1d 12 35 3d db c9 dc bd 55 29 1d bd
       -0.044599272 0.044206727 -0.107806884 -0.038369495
0000e0 6a 6d e1 3c e2 34 08 be 2e f6 ab 3a 42 1f 20 bd
       0.027517993 -0.13301423 0.0013119632 -0.03909231
0000f0 7c 86 fa bd 6c 59 70 bd 0d 67 bc bd f8 fe 29 be
       -0.12232682 -0.05867903 -0.09199343 -0.16601169
000100 81 5c 27 be 01 ca 24 be 6b f6 6e bd f4 7c 85 3c
       -0.16343881 -0.16092683 -0.05834047 0.016294934
000110 d8 3f e9 bd a5 01 1c be 08 7d 94 3d f7 71 13 3e
       -0.1138913 -0.15235002 0.0725041 0.14398943
000120 a8 ce 59 bd 8c 31 d9 3c 98 e7 7c 3c 65 30 18 be
       -0.0531756 0.026512884 0.015436076 -0.14862211
000130 71 3b 60 3d 52 29 3f 3d 42 34 82 bb 26 e6 ce 3d
       0.054744188 0.046670265 -0.003973515 0.10102491
000140 33 dd 85 3d 0f ee 25 3e 08 2e 61 3b c5 8b b8 3d
       0.06536331 0.16204093 0.0034359712 0.09011034
000150 81 8c d5 3c 5d f6 b5 bc 8a db de 3d 47 c6 e8 bc
       0.026067974 -0.022212202 0.108817175 -0.028414859
000160 21 bd 2d bc 35 4c 19 3e db cf be 3d b0 3f 34 3e
       -0.010604174 0.14970477 0.09316989 0.1760242
000170 af fd 88 be 1e 3c c2 bc fc 43 1b 3e c4 11 19 3e
       -0.26756045 -0.023710307 0.15162653 0.14948183
000180 33 b3 4e bd ad 1c a5 bd 37 5a 40 3e 64 a8 11 3d
       -0.050463866 -0.0806211 0.18784414 0.03556098
000190 fc e6 5f bd 8d e4 45 3e c8 80 13 be 83 8a 22 bc
       -0.054663643 0.19325466 -0.14404595 -0.009920719
0001a0 6e 7d 3e 3d e3 35 be 3d 87 8d d2 3d 14 c7 c0 bb
       0.046506338 0.09287622 0.102809004 -0.005883107
0001b0 26 cf b5 3d 32 6c f0 3d 02 bc fe 3d 1b 0e 74 3e
       0.08877401 0.117393866 0.124382034 0.23833506
0001c0 79 a8 82 bc b0 23 eb 3d 8d 09 1f bd 3a 7d 12 bc
       -0.015949475 0.11481416 -0.038827468 -0.008940989
0001d0 0d 4f 0b 3e 77 be 40 bd d4 ad df 3c b8 e1 09 bc
       0.13604374 -0.04705664 0.027304567 -0.008415632
0001e0 6b 42 3b be ca 12 81 3e 7b 2e 57 bd 37 1a 77 3d
       -0.18287055 0.25209647 -0.05253456 0.060327735
0001f0 8f e8 7d be 2e c9 7d ba f2 73 3a 3e c4 51 0a 3e
       -0.24795745 -0.0009681162 0.18208292 0.13507754
000200 b9 63 00 3d f7 92 bf bd bf 9c 99 3e f6 02 0d be
       0.031345103 -0.09354203 0.300024 -0.13770661
000210 64 7a a4 bc 1a a9 24 3d 98 80 64 bd 30 34 31 3d
       -0.020077892 0.04020033 -0.0557867 0.04326266
000220 9d 0e c4 bc d3 41 00 be 40 76 fe 3d 55 85 1c bd
       -0.02393275 -0.1252511 0.12424898 -0.038213093
000230 b4 d7 af 3d e7 8e 5b bd 1e 9a c0 3c fd 4d 0f bd
       0.08586064 -0.05360308 0.023510989 -0.034986485
000240 ae d1 08 bd 79 8c d8 3d 12 59 4d bd 27 d5 92 3d
       -0.03340309 0.10573668 -0.050133772 0.07169562
000250 8c ee b6 3c 49 95 cf bd 78 5d 04 be 31 4b 6a 3d
       0.022330545 -0.10135896 -0.1292628 0.057200614
000260 16 2c a5 be b0 f6 0e bd 4f 34 99 bd 05 cf dd 3d
       -0.32260197 -0.03490323 -0.0748068 0.108305015
000270 81 ad d3 3e 1f 28 54 bb 5a 4e bb 3e a0 f5 bf bd
       0.4134331 -0.0032372547 0.36583215 -0.09373021
000280 f0 82 70 3d 4f 98 f2 bd 81 ce 44 3e 28 9c 59 be
       0.05871862 -0.11845457 0.192194 -0.21250975
000290 fc a6 bc 3d d1 2e 6c 3c 1e 6e b8 3d e5 1a 0d 3d
       0.09211537 0.014415459 0.09005378 0.034449477
0002a0 d6 83 bc bd 8c 31 e2 bd e4 a4 e4 bd b6 bd d8 3d
       -0.09204833 -0.110446066 -0.11164263 0.105830595
0002b0 bd cd 89 bd 02 18 36 3d bf 22 3e be 5e 6d 89 be
       -0.067286946 0.04445649 -0.18567942 -0.26841253
0002c0 e8 d4 81 bd 9c 67 a9 3d 3f 41 2f 3c da 57 8b bc
       -0.06339437 0.08271715 0.010696708 -0.017009664
0002d0 2f 8d 44 3d 59 ae 8b bc 64 0c 8c bd 82 e3 aa 3e
       0.047986206 -0.017050909 -0.06838301 0.333767
0002e0 9d c1 90 3c a7 99 12 3d da e7 97 bd 4f bb c1 bc
       0.017670447 0.035791066 -0.07417269 -0.023648886
0002f0 45 25 72 bc a0 ed e1 bc f6 c2 b7 bd 99 36 12 bf
       -0.014779394 -0.027579129 -0.08972733 -0.5711456
000300 5d 11 06 be e8 8c 17 3e c0 7a 23 3c 8d e4 66 3c
       -0.13092561 0.14799845 0.009977996 0.014092577
000310 c8 b2 14 bd 57 7f e5 bd b9 02 08 3e bd b7 9d bd
       -0.03630331 -0.11205929 0.13282289 -0.07701061
000320 a9 d2 a4 bc 56 f1 12 be 39 31 72 bd f5 f7 15 be
       -0.020119982 -0.14349875 -0.059128974 -0.1464537
000330 33 08 8c 3d 0b f6 be bd 0d 35 47 bd 9d f3 5d bb
       0.068375014 -0.09324273 -0.048634578 -0.0033867129
000340 1b df 7e 3d f5 23 0d 3e a9 44 fd 3d c6 82 a8 3d
       0.06222449 0.13783248 0.123666115 0.08228068
000350 68 d7 53 3e 96 ef 38 3c 02 ea 0f 3e b1 34 1b 3d
       0.2068764 0.0112875905 0.1405411 0.037892047
000360 0a 5d 54 3d 72 ef 40 3e d1 f0 70 3e a2 57 ae 3d
       0.05184654 0.18841341 0.23529364 0.085128084
000370 21 03 08 3e 50 b9 8b bc 5c bc 3f 3e 1e 8a ab bd
       0.13282444 -0.017056137 0.18724197 -0.08375953
000380 f9 30 af bc 75 44 15 3e d6 c2 01 3c 3a db 7b 3e
       -0.021385657 0.14576896 0.007919988 0.24595347
000390 5f ae cd 3d cb 11 5e 3d 03 05 83 be d1 e6 24 bd
       0.10043024 0.054216187 -0.2558976 -0.040259186
0003a0 4d 66 36 3d bc fc 5d 3b 31 29 ea bb f9 d3 1a bd
       0.044531155 0.0033872565 -0.0071460237 -0.03779981
0003b0 40 da 5a 3e ff a9 4d 3d ae 02 b8 bd 30 e3 84 3c
       0.21372318 0.05021095 -0.08984886 0.016221613
0003c0 61 a7 e4 bd c4 fc 02 3e 7b 4a c1 3d eb 6a 09 3e
       -0.111647375 0.12791735 0.09438034 0.13419692
0003d0 c0 d1 64 bc 19 c4 8d bc 65 60 ff 3d 93 46 a4 3d
       -0.013966024 -0.01730542 0.12469558 0.080212735
0003e0 42 ff 33 bd 74 3d 1d 3d f3 d3 04 3d fa 07 4e 3e
       -0.043944605 0.038388684 0.032428693 0.2012023
0003f0 2d 7c f5 3d f9 1f be bd 55 79 5c 3e ef 54 e9 3b
       0.11986575 -0.09283442 0.2153066 0.0071207206

layer1.bias f4 [64]
000000 4c c9 b0 bd e9 cc 96 bd 04 9f 15 bb d6 51 23 3d
       -0.08632144 -0.07363302 -0.0022830376 0.039872967
000010 76 ef 5f 3d 54 8c 44 3d f6 07 17 3b 40 72 c0 3d
       0.054671727 0.04798539 0.0023045517 0.093967915
000020 42 44 6a bc a0 f3 4f bc 3e 7f ca bc 00 a2 41 3c
       -0.0142985005 -0.012692362 -0.024718877 0.011818409
000030 58 a6 64 3d c3 07 94 bd 89 b2 19 3e 69 99 94 bd
       0.0558227 -0.07228043 0.15009512 -0.07255823
000040 24 7b 3c bd 62 c2 c2 3d c8 e9 d1 3c 2a 97 c1 3d
       -0.046015874 0.09509732 0.02562417 0.094526604
000050 0e 66 f9 3d f0 0f 7f 3c af 9d 02 3e 0a a5 3c bd
       0.121776685 0.015567765 0.12755464 -0.04605583
000060 ca 17 43 bd 67 39 27 3e 24 78 81 3c 6a 01 f3 bd
       -0.04763011 0.16330491 0.015804358 -0.11865504
000070 ec 44 a6 bd 7f 4b 81 bd 7c 98 9d be 39 9f d0 3c
       -0.081186146 -0.06313228 -0.307804 0.025466548
000080 3f 61 03 3e e7 5e bd bd 3d da c6 3d 92 66 55 3b
       0.12830065 -0.09246617 0.097095944 0.0032562357
000090 fc 1e 4a 3d 6a ab d8 3d 88 bb d4 3d 9a 6c 83 3d
       0.049345955 0.1057957 0.10387331 0.064171985
0000a0 fe 12 08 3d c5 ae e1 3d ac 80 e7 bd ba d7 a2 3d
       0.033221237 0.11019663 -0.11303839 0.07951303
0000b0 da e5 83 bb 99 f6 e8 3c a3 74 b7 bd 71 32 a0 bd
       -0.004025203 0.0284379 -0.089577936 -0.07822121
0000c0 58 a3 52 3d 33 e2 0e 3e c8 1e f6 3c e4 8e d9 3d
       0.051425308 0.13953476 0.030043975 0.10622957
0000d0 e3 71 0a 3e dc a0 02 be e1 29 5d bd 41 98 e3 bc
       0.13520007 -0.12756675 -0.053995017 -0.027782561
0000e0 f3 8d 80 3d ba 3c 93 3d 2e 66 e3 3d d1 49 0d be
       0.06277075 0.07189317 0.111034736 -0.1379769
0000f0 0a b6 54 3d 72 a5 1d 3d 1a a1 84 3d 01 c1 0a 3e
       0.05193142 0.03848786 0.0647604 0.13550188

layer2.weight f4 [32, 64]
000000 8a f2 26 bd ea d7 19 bd 6c 06 0f 3e c9 20 88 bd
       -0.040758647 -0.037559427 0.13967294 -0.06646878
000010 eb 62 94 bd 7d 4a fb bc b3 e0 a8 3d 98 88 6b bd
       -0.072454296 -0.030675167 0.08245983 -0.057503313
000020 d9 13 35 3e 9c c2 06 bd fb 40 30 3e 04 b6 c9 3d
       0.17683353 -0.032900438 0.17212288 0.0984917
000030 b7 b9 cd 3d db 82 02 3e dd fe 43 bb c4 c3 90 bb
       0.10045188 0.1274523 -0.002990655 -0.0044178683
000040 93 f0 14 3d 54 88 c6 3b 40 3d 04 3e 01 05 c8 3d
       0.036362242 0.006058732 0.1291399 0.097665794
000050 16 d8 0d 3d 38 94 62 3d 99 83 a5 3c 4c ae be bd
       0.034629904 0.055317134 0.020204352 -0.09310588
000060 bc f3 d1 bc 9a f1 cd 3d d4 68 33 3d 00 2c af ba
       -0.025628917 0.100558475 0.043801144 -0.0013364553
000070 cf 1f 1c 3e 21 59 ee 3d 55 66 1f 3f 34 36 80 3d
       0.15246509 0.11638094 0.6226552 0.062603384
000080 31 83 b8 3d 53 48 7a 3e 99 75 28 3e ef fc 59 3d
       0.09009398 0.24441652 0.1645111 0.053219732
000090 60 0e 5c bc b0 86 c1 bd 70 12 d3 3c 64 3a 48 3d
       -0.013431162 -0.09449518 0.025765628 0.04888381
0000a0 7c 6c 47 3e 00 d5 4f ba f3 54 b4 3d be c5 be bd
       0.19474977 -0.0007928163 0.08805265 -0.0931506
0000b0 6f 44 78 3d e9 ac 77 bf c2 4e fa bd 7d 3d ce 3b
       0.06061214 -0.96748215 -0.12222053 0.006293951
0000c0 20 83 26 3d e4 12 1c 3d ab 22 ee 3d 17 cc 35 3e
       0.040652394 0.038103953 0.11627706 0.17753635
0000d0 2b 95 7c 3d 5d fc 05 3e 9e 97 e0 bc f3 d1 d8 bc
       0.061665695 0.1308455 -0.027416047 -0.0264673
0000e0 8e 2b f0 3c 4f 55 5f bc f4 bd 06 bd 43 b7 a1 bf
       0.029317643 -0.013631179 -0.032895997 -1.2634052
0000f0 a4 71 97 3d 6a a3 8f 3d c4 e1 87 3d b3 f2 7a bc
       0.07394722 0.07013591 0.06634858 -0.015316653
000100 7c bd 9b 3c d8 59 39 bd ab 8c 23 be ef 4f 0d be
       0.019011252 -0.045251697 -0.1597163 -0.13800023
000110 fa 06 07 bd fe 2b da bc 8c d7 67 3d 90 59 80 bd
       -0.032965638 -0.026632305 0.056602046 -0.06267083
000120 1b 2c f0 bc f9 e3 61 3d c8 d2 27 bd 2c b9 47 3d
       -0.029317906 0.055149052 -0.0409725 0.048760578
000130 97 9f e6 bc b7 51 96 3c 69 9b f3 bd eb eb 1f be
       -0.02815227 0.018349512 -0.118948765 -0.1561734
000140 7f 00 be 3d c0 95 62 3d 49 96 87 bd ec 45 78 3d
       0.09277438 0.055318594 -0.066204615 0.060613558
000150 ec eb 8e bd 74 cd d6 3a 2f 88 7b bd 20 25 e1 3c
       -0.06978592 0.0016388134 -0.06140917 0.027483523
000160 d7 41 b3 3d c8 56 8b 3d 25 84 9c 3d e2 47 9b bd
       0.08752792 0.068036616 0.07642392 -0.0758207
000170 35 7a 41 3d 0e c5 1f bd fd 3f 55 3d be 3b b2 3d
       0.047235686 -0.039006285 0.052062977 0.08702801
000180 f1 31 a9 b9 76 d5 7f 3d 73 96 16 be e5 76 15 be
       -0.000322714 0.06245943 -0.1470583 -0.14596136
000190 e0 77 f8 3d e8 3e e5 bd 40 7c 15 bc 28 e4 94 bc
       0.12132239 -0.11193639 -0.009123862 -0.0181752
0001a0 5f 26 b6 bd b7 e9 9e bd f6 5a 55 bd 54 ef b4 3d
       -0.088940375 -0.07759421 -0.0520887 0.08834711
0001b0 6b 8d e7 bd e8 8f 01 bd 18 f7 fd bd b3 a3 bd 3d
       -0.1130627 -0.03163138 -0.12400645 0.09259739
0001c0 b6 03 d3 bd 68 90 6f 3d 78 2d b2 3d 93 0b 54 bd
       -0.10303442 0.058487326 0.08700079 -0.05176885
0001d0 c7 7a 93 3d 11 35 87 3d ef df 12 3c 5b 86 a4 bd
       0.07201152 0.066019185 0.008964523 -0.08033439
0001e0 b9 72 ca bd 5f 06 42 3d a8 c6 08 3d bc d9 c6 bc
       -0.09885163 0.047369357 0.03339258 -0.024273746
0001f0 a1 3c f9 bd 3a c4 d0 bd 00 0f 0c 3a 0b 53 a4 bd
       -0.12169767 -0.10193677 0.00053428113 -0.08023652
000200 fc bc d0 3b 43 a7 7d 3c b9 df d9 3d 76 c4 29 3e
       0.006370185 0.015481773 0.10638375 0.1657885
000210 a6 96 e6 3c 3b 42 2c bd ac 07 a1 bd 96 26 98 3d
       0.028148007 -0.04205535 -0.078627914 0.07429235
000220 75 2f 21 3e 33 e0 26 3e 00 f3 1d 3d c8 ad dd bd
       0.1574076 0.16296463 0.03856182 -0.10824162
000230 8a 77 36 3e 42 bc 1f 3e d0 64 30 bb a5 bd 25 3d
       0.17819038 0.15599158 -0.0026915558 0.040464062
000240 fc 36 cb 3d e0 e2 14 3e 50 b0 eb 3d f8 16 2a 3e
       0.09922597 0.14539671 0.11508238 0.16610324
000250 ea 67 c7 3d df c8 b5 bd 51 34 01 3e cc c9 b2 bd
       0.09736617 -0.08876204 0.12617613 -0.08729896
000260 4c 47 e6 3d d7 b5 1f 3e b7 6f f0 3d 50 a8 29 bc
       0.112440675 0.1559671 0.11740058 -0.01035507
000270 95 c7 7e bd db d9 e8 3d df 2a 00 3f 2f b4 99 3d
       -0.062202055 0.11369678 0.50065416 0.075050704
000280 73 60 59 3c 6c 66 05 3d ef f2 2e 3e 99 47 29 3d
       0.013267624 0.03256838 0.1708486 0.041328046
000290 e0 ff e8 3b e8 b5 75 bd 40 82 b2 3d f8 f4 6e 3d
       0.007110581 -0.059987932 0.087162495 0.05833909
0002a0 05 b8 fc 3d 87 1f 95 bc 7e cc 63 bd 46 e0 c0 3d
       0.123397864 -0.01820351 -0.05561494 0.09417777
0002b0 47 eb 35 3e 4e f9 9d be 70 35 5f bd ca a7 1f 3e
       0.17765532 -0.30854267 -0.05449432 0.1559135
0002c0 a9 dd 0a 3e 86 08 05 3e d1 d6 a0 3d 90 22 9b bc
       0.13561119 0.12991533 0.07853473 -0.01893738
0002d0 fb 99 9d 3d d0 d2 a4 3d 3e 34 21 3d ae 96 ab 3d
       0.07695385 0.08048022 0.039356463 0.08378349
0002e0 8f b2 a0 3d f5 35 81 3d a8 63 87 3d 4c 8d 4c bf
       0.07846557 0.063091196 0.06610805 -0.799031
0002f0 e5 6d 4a 3e 1c de 0b 3c f0 34 3b 3c cc 1d cb 3c
       0.19768484 0.008536842 0.0114261955 0.024794482
000300 f0 8d 9e bd b2 d9 d7 bd 6a e4 0a 3d 4a 43 95 3d
       -0.07741916 -0.10539569 0.03390924 0.07288225
000310 ca 0b 65 bb b4 11 70 bd cd 6b 40 bd c0 22 b2 bb
       -0.0034949654 -0.058610633 -0.046977807 -0.0054362714
000320 19 7e 35 3d 8a ee e6 3d c8 50 b7 3d 88 31 23 bd
       0.04430971 0.112759665 0.08950955 -0.03984216
000330 a3 12 af 3d 39 c2 85 3d 5b e4 b9 3d 63 6c 2d bd
       0.085484765 0.06531186 0.090767585 -0.042339694
000340 53 3c c2 3d da 8a ac 3d 23 b4 12 bd 7a 10 04 3e
       0.09484162 0.08424921 -0.035816323 0.1289691
000350 89 e0 87 bc 43 f3 b8 bc b8 77 d5 3d 1c 75 56 3d
       -0.016586559 -0.022576934 0.10423225 0.052357778
000360 00 8b 22 bc e7 6c c6 3d b4 5f e7 bb 58 03 83 3d
       -0.0099208355 0.0968874 -0.0070609692 0.06397122
000370 df 66 a7 3d 34 24 b2 bd 03 3c 25 3f 3e 44 5c 3a
       0.08173918 -0.086983114 0.64544696 0.0008402503
000380 3e 10 4c bd 9c 08 a1 3e ab 7d 1a 3e ff 97 8c bd
       -0.049820177 0.3145188 0.15087001 -0.068649285
000390 28 94 47 3d 1e 5e f3 3d c8 78 cb bd 74 34 35 bd
       0.048725277 0.11883186 -0.099351466 -0.044239476
0003a0 1f 24 98 3d 3f ba 4f bd 4c 6d f5 3e 7a cf f8 3d
       0.074287646 -0.050714727 0.4793495 0.12148948
0003b0 25 34 f3 3c 7f b4 b5 bf 70 e5 d6 3d 5a 08 09 bd
       0.02968795 -1.4195708 0.104929805 -0.03345523
0003c0 51 20 87 3d 9a 01 86 bc b7 e0 e5 3d 8e 48 a7 bc
       0.06597961 -0.016358186 0.112245016 -0.020420339
0003d0 af 9a c4 3d eb 9c 0e 3d dd 04 10 bc dc d5 c4 3d
       0.09599816 0.034817617 -0.008790222 0.09611103
0003e0 15 0a ff 3d dc f8 37 bc 24 5b e8 bd 8c 42 b4 bf
       0.12453095 -0.011228766 -0.11345509 -1.4082808
0003f0 17 26 85 bb 89 37 e5 3d be 54 b7 bd 5f 5a 97 3d
       -0.0040633786 0.11192233 -0.0895171 0.07390284

layer2.bias f4 [32]
000000 02 18 a6 bb 55 37 1a bd 21 5a 14 bc 7a 75 e3 3d
       -0.00506878 -0.037650425 -0.0090546915 0.11106391
000010 c6 48 85 3d 9f 70 fc bd 4f cd 56 bb c4 c5 82 3d
       0.06508021 -0.12326168 -0.0032776182 0.06385377
000020 a8 c5 9a 3d ed 6c 86 bd 26 3e 2f bd 0f ef 84 3d
       0.07557231 -0.06563745 -0.04278388 0.06490909
000030 fa dd 38 bd 53 4a 97 3d b4 e8 dd bd 0a 48 a0 bd
       -0.04513357 0.07387223 -0.108354 -0.0782624
000040 40 09 55 3c 86 83 cc bc fa 5f 7c bd b1 c6 3b 3d
       0.013002694 -0.024965059 -0.061614968 0.045843784
000050 01 ae 95 bd 00 c1 c8 ba 78 a2 e1 3c 5c 42 48 3d
       -0.07308579 -0.0015316308 0.027543291 0.04889141
000060 40 40 1c 3e 9a d4 fc 3d e0 00 13 bc ec 51 6b 3b
       0.15258884 0.12345238 -0.008972377 0.0035906984
000070 95 9a e6 bd c2 74 15 3d 8a 0a ef 3d 44 06 cc 3d
       -0.11259953 0.036488302 0.11671932 0.099621326

output_layer.weight f4 [1, 32]
000000 6d a3 86 3d 72 12 17 bd 5b 83 4b 3e b5 b7 27 3e
       0.0657414 -0.036882825 0.19874327 0.16378672
000010 40 88 2a 3e 27 de ca be c2 4c 26 3e d9 6d 0a bd
       0.16653538 -0.39622614 0.16240218 -0.033796165
000020 c5 3b 45 3e 8c d9 b6 3d 64 6f 9d 3a c5 93 43 3e
       0.19261082 0.089282125 0.0012011346 0.19099338
000030 90 a9 e1 bd 0b 86 18 bb 00 52 9e bd 32 68 58 3e
       -0.110186696 -0.0023273255 -0.07730484 0.21133497
000040 d8 9c 29 bd c6 4e e0 3d 54 85 3e 3e 1c a3 e2 bd
       -0.041409343 0.10952525 0.18605548 -0.11066267
000050 0a 9f 6d 3e 97 33 0a be ec de d3 bd 75 b5 f2 bc
       0.232052 -0.13496242 -0.10345253 -0.029627541
000060 97 70 d4 3d 3d bd 87 3d 3b a6 f4 bd b0 85 3c 3e
       0.10373037 0.06627891 -0.119457684 0.18410373
000070 c4 73 cd bc 14 87 15 3c 36 d8 f9 3d 23 0d 32 bc
       -0.025079615 0.009126443 0.12199442 -0.01086739
