overunder_model.pth (torch, 511640 bytes, 5 tensors)

layer1.weight f4 [64, 1954]
000000 ef 71 25 3e 9e 07 78 3d 37 10 cf 3d 25 c5 ab bd
       0.16156743 0.06055414 0.101105146 -0.08387212
000010 03 bc 3e bd 1f ba 88 3b 9e 49 9f bc 00 cb 44 3d
       -0.04656602 0.004172578 -0.019444283 0.04804516
000020 75 d0 30 3e 07 14 2d 3e 22 67 67 bc 64 61 18 bf
       0.1726702 0.16902171 -0.01412371 -0.59523606
000030 29 4d 17 3e 03 67 c6 3d 6a 39 85 be 66 3d fe 3e
       0.14775528 0.09687617 -0.26020366 0.49656218
000040 5d c2 ae be a2 41 97 3e e5 91 16 3e 70 5e 7c bd
       -0.34132662 0.2954226 0.14704092 -0.0616135
000050 6c 80 a3 3e c9 78 4a 3c af 68 1e be 6b 5a cf be
       0.31933916 0.012357899 -0.15469621 -0.4049867
000060 4f 71 03 be 22 b1 5e 3e 15 a8 07 bd 3d 30 24 3e
       -0.12836193 0.21747258 -0.03311928 0.16034026
000070 a0 46 d6 bc 0f f1 d8 3b b6 7f c4 3e 79 0f 7d 3e
       -0.026156723 0.0066205333 0.38378686 0.24712934
000080 f1 26 2c be 6b 63 df be ee d4 df bd d6 a1 f5 3d
       -0.1681173 -0.43630537 -0.10929285 0.119937584
000090 b4 31 cd bc 76 d4 c1 3e 90 0e a0 3e b4 f0 8c 3d
       -0.025048114 0.37857407 0.3126111 0.06881848
0000a0 6c f6 77 bd c5 68 df 3c d3 65 96 3c 27 95 36 bb
       -0.06053774 0.027271638 0.0183591 -0.0027859898
0000b0 cc 1d 1d 3c e7 34 2b bd e4 bd 0f bd eb 7e ce 3c
       0.009589624 -0.0417985 -0.035093203 0.025207004
0000c0 06 b8 e0 bd ee 67 28 3e 30 f3 8d be 12 ff 2f 3d
       -0.109726 0.16445896 -0.277246 0.042967863
0000d0 4d df 59 3e 5a 0a c7 3d 47 09 c2 3d 0d 92 2a be
       0.21276589 0.09718771 0.09474426 -0.16657276
0000e0 00 23 01 3e 38 fd 44 be 48 22 9e 3d 6a 7f 4f 3e
       0.12611008 -0.1923722 0.077213824 0.20263448
0000f0 d8 22 98 3d 2a ab 0c bc a7 7f ef bd 3e 82 8b 3e
       0.07428521 -0.008585731 -0.116942696 0.27247804
000100 07 cd 54 3d d3 cf 39 3e 42 c1 b9 3d b5 c3 1d bd
       0.05195334 0.18145685 0.09070064 -0.03851672
000110 b9 85 01 3e 94 4e 8b 3d 05 6c 75 3d 6f 21 a7 3e
       0.12648667 0.06802097 0.05991747 0.32642695
000120 19 24 08 bb 20 73 cb bb ae 9a e8 3c 5a 56 c4 ba
       -0.002077347 -0.0062087923 0.02839407 -0.0014979348
000130 86 42 6d bc 08 4f dc bb f4 5f 65 3c 80 ea 9f b9
       -0.014481192 -0.0067232884 0.013999928 -0.0003050156
000140 d5 97 dc 3b c0 3d 0c 3c 4a 04 83 bc 93 8a b1 bc
       0.006731967 0.008559644 -0.015993256 -0.021672523
000150 e4 cf e0 bb 80 02 35 b9 b8 5c 08 bb f7 80 8a bc
       -0.00686072 -0.00017262436 -0.0020807218 -0.016907198
000160 2a 7b a7 bc d8 d5 cf 3b 18 b7 59 3c bc 9d 16 3c
       -0.020444471 0.006342631 0.013288282 0.00919288
000170 dc b2 10 3c 6c f8 7a 3c 80 eb cf bb 63 b6 e9 3c
       0.008831706 0.015318017 -0.0063452125 0.028529352
000180 6d 00 9d 3c 9d b7 2b 3d b2 ee 58 bd 54 28 3c bd
       0.019165242 0.041923154 -0.052962013 -0.045936897
000190 ef 8b 06 3d c6 38 1c bc 18 d1 ab bb 21 18 8e bd
       0.032848295 -0.00953502 -0.005243432 -0.06938196
0001a0 34 c8 10 3c e0 3b 3d 3c 60 0e bc 3b de 2c aa bc
       0.008836795 0.01154992 0.0057390183 -0.020773347
0001b0 67 a9 ab bc 48 db 72 bb 02 db 31 bc 24 4c 22 3c
       -0.0209548 -0.0037056971 -0.010855438 0.009905849
0001c0 86 65 b4 3c 66 70 08 3c 08 ae 7a 3c 00 76 f3 3b
       0.022021066 0.008327579 0.015300281 0.007429838
0001d0 f0 66 ba 3a c3 50 aa bc 14 66 27 3c 38 5f df 3b
       0.0014221352 -0.020790463 0.010217208 0.006816771
0001e0 a8 f6 e1 3b 7e 82 68 bb e8 c2 d5 bb c8 ea 94 3d
       0.006895859 -0.003547817 -0.006523479 0.072713435
0001f0 54 40 73 3c 32 a5 fe bb 2c 5a 90 3d ce 46 82 3d
       0.01484688 -0.0077711577 0.07048449 0.06361161
000200 a0 de d4 3b 3c 2a 81 bb 1f de 78 3d 7b 04 0d 3d
       0.0064962655 -0.0039418023 0.060758706 0.0344281
000210 11 03 7c 3d 30 3a 56 3d bf 4c d1 bd 36 97 fb 3b
       0.06152636 0.052301586 -0.10219716 0.007677938
000220 30 38 8a bb e0 d1 07 3a c2 85 9f 3c e8 01 13 bb
       -0.004218124 0.0005181115 0.01947296 -0.0022431556
000230 bd 66 1f bc 27 32 a2 bc 58 89 9d 3c 42 4c a1 bc
       -0.009729085 -0.019799305 0.01923053 -0.019689683
000240 f4 db bb 3b c1 fa 54 bd a0 6d 38 3c 03 bd 35 bc
       0.0057330076 -0.05199695 0.011256605 -0.011092427
000250 00 54 c2 bb c4 ad 89 bb b0 e9 45 3b 18 d7 65 bc
       -0.0059304237 -0.0042016227 0.0030199103 -0.014028333
000260 d0 f1 24 3c 6c 88 de bb 80 b4 f9 3a bc 5a 92 3b
       0.010067418 -0.006791165 0.0019050986 0.004466383
000270 5e 76 aa bc de 23 64 bc 20 0b d9 ba 98 6a d4 bb
       -0.020808395 -0.013924567 -0.0016559102 -0.0064824335
000280 54 cb 73 3c 90 b6 e3 bb 35 3b 7f bc 01 d4 93 3e
       0.01488002 -0.0069492534 -0.015578081 0.28872684
000290 b3 4b a6 bc f8 a8 bf 3d 93 2b 71 bd 49 5f 14 3d
       -0.020299768 0.093584 -0.058879446 0.036223684
0002a0 e8 05 58 3d 0e 83 65 3c 26 cd 59 3d 8f 66 72 3d
       0.052740008 0.014008297 0.05317416 0.05917984
0002b0 e3 86 e1 bd 57 b0 4a 3d 06 8c 35 bc 6f b0 0a bc
       -0.11012056 0.049484577 -0.0110807475 -0.008464917
0002c0 5d bb 5b 3c a0 40 a6 bb a4 6a 1b bc 9e 6b 39 bc
       0.01341137 -0.005073622 -0.009485874 -0.011317162
0002d0 46 ef a9 bc 19 6a 23 bc a7 ae a9 bc b4 61 94 3e
       -0.020743977 -0.009974026 -0.020713164 0.28980792
0002e0 06 fe a9 3c 40 b2 fb b9 a0 28 14 ba 34 d3 cd bb
       0.02075101 -0.00048007257 -0.00056518055 -0.006281281
0002f0 4e 59 a1 3c bd e6 af 3b c0 a3 3d 3a 7c 1a 54 3c
       0.019695904 0.0053680823 0.00072341785 0.0129457675
000300 2c 5b 87 3b de e5 af 3c f5 37 dc 39 c8 71 3a bb
       0.0041307416 0.021471914 0.0004200336 -0.0028449167
000310 6e 31 a1 bc fc 37 96 bc 01 3e 76 bc db cd 32 3d
       -0.01967689 -0.018337242 -0.015029431 0.04365335
000320 78 98 23 3c 9c 61 ec 3b 44 22 dc bb 72 73 08 3c
       0.009985082 0.0072137844 -0.006717952 0.008328306
000330 00 d0 22 38 80 3f 3b b9 e5 68 9d bc 6e 2f 97 3c
       3.8817525e-05 -0.00017857365 -0.019215057 0.018455233
000340 08 f6 d1 3b e0 a4 64 3a 70 3b 9d 3c 12 21 54 3c
       0.006407503 0.0008722078 0.019193381 0.012947338
000350 ba 80 0c 3c d0 77 54 bb db 52 da bc bd 04 c2 3c
       0.008575613 -0.0032420047 -0.026650837 0.0236839
000360 cb b6 b4 bc ec 2a 23 3c 83 fe 81 bc 94 fb 9f 3c
       -0.022059819 0.009958964 -0.015868431 0.019529141
000370 2c 06 8f 3c 74 f8 a3 bb e0 5b a6 bc 2c f0 0d 3c
       0.017458998 -0.005003983 -0.020307481 0.0086632185
000380 30 d6 31 3c 84 52 a2 3c 4c 2e 89 bb be 2d 04 bc
       0.010854289 0.019814737 -0.004186427 -0.008067546
000390 00 dc 64 bb e4 96 4e 3c aa e4 94 3c a5 c3 22 bc
       -0.003492117 0.012609217 0.018175442 -0.009934341
0003a0 ac d0 fb bb dc 68 a6 bc 52 a6 9d 3c 2d 01 42 bc
       -0.0076847877 -0.020313673 0.019244347 -0.011841101
0003b0 7e 2d 3c bc a4 36 f9 3b 48 1d 4e bb 18 4c 12 3c
       -0.011485456 0.0076053906 -0.0031450558 0.008929275
0003c0 90 bb 80 3c f0 7a 55 bb e0 9f c6 3b c0 cc ad ba
       0.015714437 -0.0032574497 0.006061539 -0.0013259873
0003d0 a6 f4 25 bc b0 a8 6d 3c e7 4e 0d 3c f8 85 66 bd
       -0.0101291295 0.01450555 0.008624769 -0.056280106
0003e0 85 76 a5 bc 8c a9 a8 3c 8c a8 20 3c 0f 3f 05 3c
       -0.020198116 0.020588659 0.00980581 0.00813271
0003f0 6a 0c 90 3c a4 5d 32 3c 94 56 e2 3b 5e 42 79 bc
       0.017584044 0.0108865835 0.0069072936 -0.015213577

layer1.bias f4 [64]
000000 ad 86 72 3d 84 d1 f0 3c 43 63 8e bc 45 a9 01 be
       0.059210468 0.02939678 -0.017381316 -0.12662227
000010 da 69 9f 3d e0 5e 82 3c 7b 90 0c be 78 23 af bc
       0.077838615 0.01591438 -0.1372699 -0.021379218
000020 ae 37 22 3d 4d f1 cc 3d 06 1d 3d bd ca c2 59 bc
       0.03960388 0.10006962 -0.046170257 -0.01329107
000030 04 26 10 bd 6e db b3 bd 3f 3d 0b bf cf 56 fe 3d
       -0.035192505 -0.08782087 -0.5439033 0.12418901
000040 0f 4b 15 bd 41 71 df 3c df e6 99 3b f1 ce 0b 3e
       -0.036448535 0.027275683 0.0046967114 0.1365316
000050 8e a8 a9 3c 08 ac 0d 3d 45 15 c1 bc fc 07 b3 3d
       0.020710256 0.03458789 -0.023569712 0.08741757
000060 4c 78 3f 3d 0a c6 a1 3d 10 62 fc 37 6c ab e9 3d
       0.046745583 0.07899101 3.0086405e-05 0.11409649
000070 10 a0 81 3c f2 84 89 bb 2b d0 a3 3b 32 04 b3 3d
       0.015823394 -0.0041967565 0.004999181 0.087410346
000080 2f 35 6e 3c 04 a6 34 bc ad c8 63 bd fd 4c 36 3d
       0.014539047 -0.011025909 -0.0556113 0.044507015
000090 c9 e1 93 bc 2c ee 85 bc be 91 ed bb 94 e2 ee 3d
       -0.018051999 -0.01634892 -0.00725004 0.1166431
0000a0 4c 47 bd 3c 44 03 57 bc 1c b4 a9 3c 3d 14 0c bc
       0.023105286 -0.013123337 0.020715766 -0.008549747
0000b0 54 02 49 3c b2 7e 48 3c 6e c8 cc 3c 22 fe cf bb
       0.0122686215 0.012237238 0.024997916 -0.0063474337
0000c0 d3 c4 98 3c 77 c2 bb 3d ae 34 0d bd 82 1e 9a 3c
       0.01864854 0.091679506 -0.034474067 0.018813375
0000d0 d0 2b 89 bd 79 b9 0f 3e cb 65 5d bb 21 c2 eb 3d
       -0.0669781 0.14035596 -0.0033782597 0.115116365
0000e0 1c 74 cb bc 08 16 fb bd ce 0f ca bc 22 19 28 bd
       -0.024835639 -0.122600615 -0.02466574 -0.041039594
0000f0 da 6b eb 3c 95 05 12 be bb 31 7b 3d 77 11 26 3d
       0.028737951 -0.14259942 0.061326724 0.040544

layer2.weight f4 [32, 64]
000000 d8 e3 05 3c b4 08 78 bd 18 1e 10 3d c8 5d 20 be
       0.008171998 -0.060555175 0.03518495 -0.15660775
000010 7a 4d 2f bd 49 ea 72 3d 49 0a bc be 68 fd 81 bc
       -0.042798497 0.059305463 -0.36726597 -0.015867904
000020 11 d8 f9 3a 02 f2 de 3d f4 3f 0b be 4c 05 8a 3d
       0.0019061585 0.10886003 -0.13598615 0.067392915
000030 f4 ec 06 be ce 45 e8 bd 33 b5 1e bf b1 7f f3 3c
       -0.13176328 -0.11341439 -0.6199524 0.029723974
000040 ee 41 ac 3d 7e a8 4e 3e e6 81 41 3d 10 c8 3f 3e
       0.084110126 0.20181462 0.04724302 0.18728662
000050 f8 c5 00 be 33 bf f3 bd 9d d5 5a bd 45 ed 95 3e
       -0.12575519 -0.11901703 -0.053426374 0.29282585
000060 39 61 87 3d f9 6a b3 bd c7 c8 a3 3d 5e 0f a1 3e
       0.066103406 -0.08760638 0.079972796 0.31457037
000070 60 17 0e bd 49 d9 4a bd 5a e9 d4 3d 44 81 95 3d
       -0.03469026 -0.049523626 0.10396071 0.07300046
000080 68 9e fe 3d 0d 41 f9 bd 9a a9 b1 3d c1 a9 94 3d
       0.12432557 -0.121706106 0.08674927 0.072589405
000090 08 1f da 3d c0 55 9b bd ba 0f f3 bd 07 f4 54 3e
       0.1065045 -0.07584715 -0.11868234 0.20796214
0000a0 26 0a 45 bd 88 7f cf 3c 14 d8 aa bd f8 81 19 bd
       -0.04810538 0.025329366 -0.08341995 -0.037477463
0000b0 d0 f9 1c bd 85 ce da 3d 14 be 46 ba 0e a1 85 bd
       -0.038324177 0.10683922 -0.00075814244 -0.06524859
0000c0 b1 cc 85 3d 22 4a 79 3e a3 2d 74 3d 00 7f e5 bb
       0.065331824 0.24344686 0.059613835 -0.007003665
0000d0 e3 91 dc bd 88 13 4e 3e db 44 22 be 67 96 7e 3e
       -0.10770013 0.20124638 -0.15846579 0.24862061
0000e0 5a 7c 46 3d c8 74 45 bd 10 7b a4 3d 83 4d 89 bd
       0.048458435 -0.048207074 0.08031285 -0.06704237
0000f0 d3 57 e6 bd 6f ce b4 3b 52 72 a3 bd f8 63 01 3d
       -0.1124722 0.005517773 -0.07980789 0.03158948
000100 55 d4 a5 3d de a8 32 3d 10 5b 8d bd 03 0b 43 be
       0.0809714 0.043618076 -0.069021344 -0.1904717
000110 9a 80 b7 3c 7c 79 99 bd 0c d2 0a be dc d7 d2 3d
       0.02240019 -0.074938744 -0.13556689 0.10295078
000120 03 6b 09 3e 70 b6 87 3e 11 a3 d2 bd d2 df e2 bd
       0.13419728 0.26506376 -0.10285009 -0.110778466
000130 eb 82 7f bc 04 0e 38 3c 68 0c 1b bf bf e4 e3 3d
       -0.015595178 0.01123381 -0.60565805 0.11127614
000140 77 81 50 bd c3 31 8a 3e e1 34 a8 bd 0a be 88 3e
       -0.050904717 0.2699109 -0.08213211 0.26707488
000150 43 3c 5f bd f8 4a f3 bc 67 cc 81 bd cb b2 b5 3e
       -0.05450083 -0.029698834 -0.06337815 0.3548797
000160 13 3c 46 3c 84 c5 1d 3e d3 a7 36 bd f9 27 3e 3e
       0.012099284 0.15407377 -0.044593643 0.18569936
000170 25 79 db 3d 23 09 13 bd 22 78 96 3d 56 4f 73 3e
       0.10716466 -0.035897385 0.07347132 0.23760733
000180 52 bb 02 bd b6 f9 82 bd 45 14 e3 3c fa 44 26 3d
       -0.031916924 -0.06395285 0.027719626 0.040593125
000190 6b d4 02 3e 0f 88 2d 3e e1 1e 3f 3d db 11 bd 3d
       0.12776344 0.16946433 0.046660308 0.09231921
0001a0 ad f1 ce 3d 6a a7 be bd ae a8 88 bd 85 94 1a bc
       0.1010469 -0.093092754 -0.06672798 -0.009434824
0001b0 d0 05 0e bc f4 66 a0 3d 4e 38 db bb 4f 88 19 3e
       -0.008668378 0.07832137 -0.0066900617 0.14993404
0001c0 e0 65 e6 3d 2d d6 84 3e cc 2e a0 bd 48 22 c3 3d
       0.112499 0.25944653 -0.07821426 0.09528023
0001d0 93 3a 2b be 64 89 d8 3d a0 5d 2e bb 22 6c 26 3e
       -0.16721563 0.1057308 -0.0026606098 0.16252187
0001e0 f1 9b b6 bd 1a e3 34 be e6 26 73 bd 94 12 d0 bd
       -0.08916462 -0.17664757 -0.05936327 -0.101597935
0001f0 ce 70 11 3e 6c 06 63 bd 4e 9c 2f 3d c4 14 31 3c
       0.14203188 -0.055426046 0.042873673 0.010808174
000200 ed ea 84 bf bd 10 3f bf 00 90 95 bf f7 a0 6f 3e
       -1.0384194 -0.74634916 -1.168457 0.23401247
000210 1e 17 c7 3d 52 bf 89 3f ec bc d2 3e 40 d4 31 3c
       0.09721206 1.0761511 0.4115976 0.010853827
000220 f6 5b 93 bf 53 32 99 be a7 f8 de 3e e0 1d b7 3b
       -1.1512439 -0.29921207 0.43549082 0.005588278
000230 8e 71 d8 3e 5f c2 4e 3d 8b 67 06 3f 28 8c 8d bd
       0.42274135 0.050478335 0.52501744 -0.06911498
000240 36 b9 40 bf 84 74 4c bf dd a1 8f 3f 27 0b 7f be
       -0.7528261 -0.7986529 1.1221272 -0.24906598
000250 6e e7 80 3f 53 3b 05 be 09 0a fc 3e 02 1a c7 be
       1.0070627 -0.13010912 0.49226406 -0.3888703
000260 55 5c 98 3e a7 8d b8 3e 34 a6 01 bf 9d 64 cc bd
       0.29757944 0.36045572 -0.5064423 -0.09980128
000270 06 33 4e bf 20 05 1a 3d 14 86 ee bd d2 e2 51 be
       -0.80546606 0.037602544 -0.11646667 -0.20496681
000280 30 a0 97 3d 3c 4d 63 3e 30 57 41 3e 47 77 4a bf
       0.074036 0.22197431 0.18880916 -0.7908825
000290 47 b7 0a bc d2 df 1f 3e 73 a8 b8 3d 87 5f c7 bb
       -0.008466548 0.15612724 0.09016504 -0.006084386
0002a0 14 ed 75 be 60 af c5 3b 8e 51 89 3d 96 30 68 bd
       -0.2401622 0.006032869 0.067050084 -0.05668696
0002b0 28 24 dd 3d f2 1b a7 3d d6 8e 54 bf 1f 3d cc be
       0.10797912 0.08159627 -0.8303045 -0.39890382
0002c0 48 89 6d 3f 3a ab 16 3b 2d 33 5e bf ca 18 9d bd
       0.927876 0.0022990243 -0.8679684 -0.07670744
0002d0 e9 2c 88 3d b7 98 99 be be 60 59 3f ef bd 44 be
       0.06649191 -0.29999325 0.8491324 -0.19213079
0002e0 09 f9 8e bf 8e 62 d2 3d 15 b9 86 3c 57 e7 7a 3f
       -1.116975 0.10272704 0.016445676 0.98009247
0002f0 b6 a1 50 3f 69 16 2b 3e f1 f3 91 bf c9 46 10 bf
       0.8149675 0.16707768 -1.140257 -0.5635801
000300 10 c3 9a bd b0 e9 81 3d 74 ec 03 3d 8b 2f 23 be
       -0.075567365 0.063434005 0.03220792 -0.15936105
000310 28 90 ce 3c 92 e6 c0 3d 3b f6 b9 be 80 68 19 3b
       0.025215223 0.09418978 -0.3632067 0.0023408234
000320 93 ed be 3d cd d2 1f 3e 21 98 02 be 98 c6 4f bd
       0.093226574 0.15607758 -0.12753345 -0.050726503
000330 c2 d2 bf bd fa 71 88 3c 0e f2 05 bf e9 71 26 3c
       -0.09366371 0.01665591 -0.5232247 0.010158994
000340 49 06 a6 bd 30 6e e1 3c f4 0a 59 bc b8 ec 34 3e
       -0.081066675 0.027518362 -0.01324724 0.17668426
000350 e1 5e c4 bd a8 dc ba bd 8e 66 69 3c 30 6a bd 3e
       -0.09588409 -0.09124118 0.014245642 0.36995077
000360 d4 c0 09 3e 55 13 1e 3d 38 7b 4e bc 51 19 9a 3d
       0.13452464 0.038592655 -0.01260262 0.0752436
000370 1b 1e 9a bc 86 15 9c bd 58 0e ac 3c b3 99 9d 3d
       -0.018813184 -0.07621293 0.021002933 0.076953314
000380 f6 b2 e7 3d 0f d5 c4 bd a8 94 85 bd f2 2e b0 bb
       0.11313431 -0.0961095 -0.065224946 -0.00537669
000390 85 cc c5 3c 3d c5 00 bd aa f7 f2 3d 78 f3 4c 3e
       0.024145374 -0.0314381 0.118636444 0.20014751
0003a0 34 40 60 3d 40 67 ea bc 7c c2 5f bd 10 be e2 bc
       0.05474873 -0.028613687 -0.054628834 -0.02767852
0003b0 7e 46 d2 bd 00 4c 1e 3d 17 af 90 3d a6 b3 cf 3d
       -0.102673516 0.038646698 0.07064646 0.10141687
0003c0 b8 e8 af bd 14 33 4a 3e cc f5 73 bd bc 3a 3a 3d
       -0.085893095 0.19746047 -0.059560582 0.04546617
0003d0 96 ea 63 3c 36 7b 57 3e 75 89 da bd f1 e7 3d 3e
       0.01391091 0.21043095 -0.10670749 0.1854551
0003e0 7b 17 bb 3d d1 68 56 bd ef 45 ed 3c a1 b3 c3 bd
       0.09135338 -0.052346054 0.028964011 -0.09555746
0003f0 23 11 b3 3d d7 a6 a2 bd 46 f4 8a bc 03 6f 2e 3d
       0.08743503 -0.079419784 -0.016962182 0.042586338

layer2.bias f4 [32]
000000 a9 a8 e0 3c 68 26 1f 3e 8b c4 92 bc 0e 9a 71 3b
       0.027424173 0.15541995 -0.017915985 0.0036865505
000010 de 77 37 bd c2 cf be bd 61 82 12 3e bb 28 0e 3e
       -0.04479205 -0.093169704 0.14307548 0.13882725
000020 78 43 0e be fe 1e ce bd 8e 5d ca 3d d6 e4 f3 3d
       -0.13892925 -0.10064505 0.098811254 0.11908881
000030 10 0f c6 bd f5 da 47 3d c0 b2 ef 3c bc b1 38 3d
       -0.09670842 0.048792798 0.02926004 0.045091376
000040 2a c8 64 bd 08 57 0c 3d 3a d7 b1 bd e0 db cc bd
       -0.055854954 0.034262687 -0.08683629 -0.10002875
000050 90 a2 a0 3c 3e 80 4f 3d fe 72 c2 3d 05 d4 03 3e
       0.019608766 0.05065941 0.09494589 0.12873848
000060 29 cb ea bd 65 eb 0c 3e f6 c3 89 bd 3a 70 34 3d
       -0.11464531 0.13761671 -0.0672683 0.04405234
000070 3b 58 2c 3e 68 a5 27 3d 74 15 f7 bd c1 d8 6e bd
       0.16830532 0.040929228 -0.12064639 -0.05831218

output.weight f4 [1, 32]
000000 71 7c df be 02 46 b6 be 23 03 8a 3f fd 03 01 be
       -0.4364963 -0.35600287 1.0782207 -0.12599178
000010 83 4c a6 3d 70 9d e6 bd 64 83 3f be 55 27 0b be
       0.08120062 -0.112604976 -0.18702465 -0.13589223
000020 bb 8a ec 3d 32 8a c9 3d 81 e8 0b be 27 79 60 bd
       0.11549898 0.09840812 -0.13662912 -0.05480304
000030 f3 bd 82 3f b6 b8 ce 3d db d3 af 3d 21 b9 b8 3d
       1.0214218 0.100938246 0.0858533 0.090196855
000040 99 09 1c be 71 c9 67 be 01 6a 9a bf c3 91 06 3e
       -0.15238036 -0.22635438 -1.20636 0.13141541
000050 61 77 0d 3e 50 af 1b 3e 19 1c db 3d 1f 11 5d 3f
       0.1381507 0.15203595 0.106987186 0.8635425
000060 5f f1 01 bd e3 fe 6b be 66 d6 3a 3f a4 f1 48 3d
       -0.03172433 -0.2304645 0.72983396 0.04905857
000070 13 b3 8c be d2 8f 5d 3d 13 b4 20 3e 34 2d dd bd
       -0.27480373 0.054092236 0.15693693 -0.107996374
