overunder_model.pth (torch, 516056 bytes, 5 tensors)

layer1.weight f4 [64, 1971]
00000000: 6da3 293c 8f45 5bbc cd61 b0bc 6d8b 70bd
00000010: 737f 4b39 e785 8cba 9a1e 4fbd 2422 7dbc
00000020: 7a9f a638 2c4d 943b e786 873b 3c04 02bc
00000030: 0bc2 30bb 3138 433b 48e0 b53a 3162 cfbb
00000040: 0274 bdba 4856 4c3a c323 6fbb 6be6 b03a
00000050: e2e4 3e3a 9d03 9d39 a7a0 54b9 c496 283b
00000060: 8602 3c39 df05 cf39 d78d 7db9 1497 f63a
00000070: 4b28 dab8 e802 44ad d769 7c3a ab66 ca38
00000080: 2fea 95b9 6bc4 e6ba 25ee 2c3b 0b62 8f3a
00000090: 3241 36b8 e81c 59b8 df87 27af 771b 1781
000000a0: 36df 8234 5d2a 4cb0 34f5 8439 bb8e 0237
000000b0: be1a 3a39 09b4 bc39 ee81 863a 8887 c901
000000c0: 86cc 2cba 10c4 c139 e997 e339 7aaf 8aba
000000d0: 24f6 83ba 7ae5 e8b9 fb27 0bbb fe84 09bb
000000e0: 01e8 06bb f100 0f3b 79a4 9bba 564e 013b
000000f0: 0fc8 e73a 9767 d2ba f925 81bb 7760 35bb
00000100: 0eac 03bb b484 2fba 1314 6c35 3b68 c83a
00000110: 5df2 823b 5d9c 813b 9377 7cbb 07cf 8abb
00000120: a924 882f fc7f 9b3a e982 36b8 8ec2 22bb
00000130: 92a9 04b1 0cdb 6036 987f 8fac 740f 2710
00000140: 0912 da39 0433 429e 8186 8db6 f500 bcb5
00000150: 90c7 9bba 16ef 9c38 94e9 4cbb 334a 11b4
00000160: b4d0 cd3a 7eb0 1831 4ad3 433a 4328 9b3a
00000170: fcb7 fdb9 14a2 3930 0913 f8b1 7ea3 97ba
00000180: f520 63b3 1e2b 7138 9cb1 6e37 008e 97b8
00000190: ee02 e4b3 18f0 df37 4cbb 2eb9 e655 0c3b
000001a0: a2b3 8539 df33 7039 a5e8 4839 316f 2c21
000001b0: 6660 ec39 44fd 22ba b905 0cac 9fe0 8a3a
000001c0: e13c 18ba 4c2a dc01 bb92 4812 45cc 8cba
000001d0: 326c 1835 d247 fe39 99c2 cbba 98a0 5fbb
000001e0: 9a7b 13ba 3bcb 37bb 0431 492f 40c6 0dba
000001f0: 8d69 1bbb 9fe3 c117 ac54 f0b3 a369 703b
00000200: 4a12 23b7 fca3 ec3a 80fa 9438 ec8e 91b0
00000210: d0e7 5a38 27da a9ba 2dca 7139 fa40 6eb9
00000220: 4231 d9b6 e37e e6ba cb14 0338 6a32 8937
00000230: a759 cc38 1029 2cba 82a1 beba bbaa 5735
00000240: 03b2 0ab6 424c 4829 3e4f b199 cc34 83ad
00000250: d8a2 5022 4250 25b9 e3e6 0eb9 235c 003a
00000260: e8f0 68b2 49ad 4432 9511 223a c868 cf21
00000270: 08fd 968f 9165 9c36 514b 21ba bbcc 8d3a
00000280: d301 04b6 4067 18b8 dac2 c2b8 328b b0ad
00000290: 41ef b038 dca6 8db9 c626 d332 c1a7 a5b5
000002a0: 94f8 9035 85e3 f3b8 ecf8 2339 531e 3bb8
000002b0: 71f0 05b5 21c5 183b 6699 d93a 7160 d835
000002c0: db73 27a4 bb26 5ab5 90a9 d5b8 db84 db2c
000002d0: 9dfe 77b8 3e84 8faf 29a8 eb1d f439 3ab9
000002e0: 8948 ceb4 7da9 dcb7 7570 0bb8 e7f1 dab6
000002f0: 3f9f 3bba 39b5 3e3b 443b d8b7 3447 c032
00000300: e1ab 0fb4 9a23 65b8 8084 d2b0 8b3d 2235
00000310: 2c94 92b3 20f4 68b5 0953 bbb0 0b5f 9ab6
00000320: 8757 3f3a ccc4 1802 4243 222b 1d28 feb6
00000330: 801b bb31 1178 5929 92f9 d980 4fcf d72d
00000340: 173a 18b8 c06f 65bb dc72 9335 3e22 a936
00000350: f5c6 34b7 86f1 d2ba eab6 833a 63a6 1b3b
00000360: 6ac1 9ab9 1c42 4838 ac2f 5b2f d93d 4d36
00000370: 51bf eab8 4b94 6939 d4a2 6eb9 526a 6bba
00000380: d29e 113b 345f 5d12 8793 a2b9 5c63 5fae
00000390: 3b2c 7935 d51d 1c02 cea6 1e02 ee8b bd39
000003a0: d27d 2eb4 6931 16b9 d15f 11ad f1ba 01b5
000003b0: 223f ea1a 923f 0db0 4938 34b9 1afb 5c85
000003c0: c07c 0202 b5d4 a8b7 2366 06bb aa01 bfb0
000003d0: 03a4 1e3a 840a 05b3 08ff aeba ab10 8cb6
000003e0: 4261 b33a e8c0 3a81 f52e 7eb7 1f07 ed32
000003f0: c0e1 12ba 08c2 2fb8 888b 9039 4417 0c80
0.010353905 -0.013383283 -0.02153101 -0.058726717 0.00019407067 -0.0010721058 -0.050566293 -0.015450034
7.945202e-05 0.004525801 0.0041359547 -0.00793558 -0.0026971127 0.0029788131 0.0013876045 -0.006328844
-0.0014454129 0.00077948393 -0.0036489822 0.0013496404 0.0007282031 0.00029948066 -0.00020277743 0.002572463
0.00017930017 0.0003948649 -0.000241808 0.0018813335 -0.00010402555 -1.1141955e-11 0.00096288085 9.651234e-05
-0.00028593975 -0.0017606145 0.0026387062 0.0010939253 -4.34529e-05 -5.1763753e-05 -1.5236833e-10 -2.7754025e-38
2.4376794e-07 -7.427497e-10 0.00025359693 7.781836e-06 0.00017748305 0.0003599229 0.0010262111 7.4030217e-38
-0.00065917557 0.00036957907 0.00043409996 -0.001058086 -0.0010067862 -0.00044421462 -0.0021233547 -0.002098381
-0.0020585062 0.002182063 -0.0011874578 0.001973053 0.0017683523 -0.0016052601 -0.0039412943 -0.0027675906
-0.0020091566 -0.00066954945 8.7946063e-07 0.0015289852 0.003996177 0.0039554075 -0.003852342 -0.0042361054
2.4764304e-10 0.0011863704 -4.35141e-05 -0.0024835202 -1.9304918e-09 3.3506103e-06 -4.07847e-12 3.2946847e-29
0.00041593637 -1.0280824e-20 -4.2177858e-06 -1.400737e-06 -0.0011885036 7.483193e-05 -0.0031267153 -1.3531171e-07
0.0015702457 2.2219235e-09 0.0007470144 0.001183756 -0.00048393 6.7532935e-10 -7.219914e-09 -0.001156911
-5.288253e-08 5.7499034e-05 1.4227258e-05 -7.226691e-05 -1.061761e-07 2.6695474e-05 -0.00016663707 0.0021413504
0.00025501574 0.00022907507 0.00019160153 5.8423027e-19 0.0004508525 -0.0006217549 -1.9898373e-12 0.0010595507
-0.00058074115 8.087593e-38 6.328973e-28 -0.0010742029 5.678186e-07 0.00048500166 -0.0015545666 -0.003412282
-0.0005626023 -0.0028044719 1.8298257e-10 -0.00054082647 -0.0023714036 1.2529792e-24 -1.11912726e-07 0.0036684058
-9.719815e-06 0.0018054242 7.103849e-05 -1.0590759e-09 5.2191142e-05 -0.0012958691 0.00023058867 -0.00022721654
-6.4728383e-06 -0.0017585423 3.12522e-05 1.6355149e-05 9.744177e-05 -0.0006567398 -0.0014543983 8.0342187e-07
-2.066722e-06 4.4475064e-14 -1.8333377e-23 -1.4916422e-11 2.8275465e-18 -0.00015765525 -0.00013628187 0.0004896542
-1.3558953e-08 1.1448102e-08 0.00061824295 1.4054601e-18 -1.4888606e-29 4.660986e-06 -0.00061528856 0.0010818461
-1.9670595e-06 -3.6335783e-05 -9.286935e-05 -2.0070699e-11 8.4368985e-05 -0.00027017936 2.4581265e-08 -1.2342281e-06
1.0801182e-06 -0.00011629522 0.00015637622 -4.4612516e-05 -4.989625e-07 0.0023310857 0.0016601502 1.6121322e-06
-3.6310486e-17 -8.126769e-07 -0.00010188215 6.2391043e-12 -5.9126516e-05 -2.6105512e-10 6.2377856e-21 -0.00017759932
-3.8423266e-07 -2.6304968e-05 -3.3244916e-05 -6.5250674e-06 -0.00071572134 0.0029099716 -2.5776804e-05 2.2384121e-08
-1.3380442e-07 -5.463101e-05 -1.531717e-09 6.043926e-07 -6.825607e-08 -8.6781984e-07 -1.3629641e-09 -4.600622e-06
0.00072991144 1.1223674e-37 5.76473e-13 -7.5744597e-06 5.4455427e-09 4.828782e-14 -2.0017832e-38 2.4534734e-11
-3.6293724e-05 -0.0035009235 1.0985782e-06 5.040579e-06 -1.0775159e-05 -0.0016093708 0.001004902 0.0023750297
-0.00029517274 4.7745285e-05 1.993487e-10 3.058338e-06 -0.00011193625 0.00022275855 -0.00022758107 -0.00089803815
0.0022219908 6.985265e-28 -0.00031008964 -5.079258e-11 9.282409e-07 1.1469631e-37 1.1655877e-37 0.00036153145
-1.6250786e-07 -0.00014323521 -8.263571e-12 -4.832828e-07 9.688213e-23 -5.138584e-10 -0.00017187106 -1.03904704e-35
9.586693e-38 -2.012621e-05 -0.0020507656 -1.3897552e-09 0.00060516613 -3.097604e-08 -0.0013351152 -4.1742655e-06
0.0013685601 -3.4301208e-38 -1.5150513e-05 2.759367e-08 -0.00056030974 -4.1903957e-05 0.0002756978 -1.110372e-39

layer1.bias f4 [64]
00000000: 39e1 3abc c688 2e82 b79c 18a7 f9c5 ca3a
00000010: 9f8c f1bc f8c6 d8ba 514f bb3c 660a 66bc
00000020: e399 c43b 7b87 11bd 949e 6cba 55b5 fcbb
00000030: 3fd1 93bc eca8 17bb 7ef4 94b6 38c7 ecbc
00000040: bb61 02bd af55 a0ba d6ce c986 2736 3cba
00000050: d1bb efbc c562 693c 23ab 15bc 5782 c2b7
00000060: 4223 08bb 7121 8fb9 6599 13bd 5a8d ac01
00000070: f0bb 25bc 0fc4 acbc 789c 7bb5 7895 9401
00000080: 6328 d7bb 5cd1 9abb 7629 8fbc 358c 84bc
00000090: 777e b43a 60bc 18bd 3652 76bb ba83 c0bc
000000a0: 0c6b 86ba 5d50 0bbb 0964 cdba 0cac 72bc
000000b0: 942d 90bc e4b3 77ba 4769 4439 a8ee 0cbd
000000c0: 04b8 98bc ff6d 2a3c e2a8 5abc 33c7 9fba
000000d0: 59a7 3abd aef7 2db9 8f8a 5401 2392 a7bb
000000e0: 0eff 15ba 39ea 873a 13c8 92ba 3076 14bb
000000f0: 1297 74bc c2ad a0bc 568b 8cb9 c059 01bd
-0.011406236 -1.2822753e-37 -2.1179193e-15 0.0015470377 -0.029485999 -0.001653879 0.02286497 -0.014040565
0.00599979 -0.035529595 -0.00090263155 -0.007712046 -0.018044112 -0.0023141457 -4.4392064e-06 -0.028903589
-0.031831484 -0.0012232567 -7.5911715e-35 -0.00071797 -0.029264363 0.01424474 -0.00913504 -2.3187296e-05
-0.0020772968 -0.000273 -0.03603496 6.338565e-38 -0.010115609 -0.021089582 -9.373248e-07 5.458109e-38
-0.006566094 -0.0047246646 -0.017475825 -0.016180137 0.00137706 -0.037289023 -0.0037585623 -0.023500312
-0.0010255291 -0.0021257617 -0.0015670072 -0.014811527 -0.017599858 -0.0009449108 0.00018731235 -0.034407288
-0.018642433 0.010402202 -0.013345929 -0.0012190103 -0.04556975 -0.00016590834 3.903766e-38 -0.0051138564
-0.0005721905 0.0010369486 -0.0011198543 -0.0022653453 -0.014928596 -0.019614104 -0.00026806694 -0.031579733

layer2.weight f4 [32, 64]
00000000: 2b90 363e 366b 1582 7a70 f733 7c4e 62ba
00000010: 7256 43be aac1 8a3a c322 c4bd 6104 ccbd
00000020: 7c27 f8bc 6e44 11be db29 933a a175 b2bc
00000030: 0850 c5bd 9ea5 a43a 1215 792f 6990 fa3d
00000040: 0b02 29bd c334 283b c16c 8bb1 fb5c eb9d
00000050: 7c49 72bd e305 b63d 7a96 a1bd a6a6 9701
00000060: ae89 00ba 27de 3939 2a56 2fbe 6f75 849f
00000070: 2fb6 0e3e 2ffb 1b3e 99a6 1126 8e18 d401
00000080: e679 133e 9f74 11be 4eb6 ccbd 07e6 54be
00000090: 00d6 65b5 966e 4bbe 8784 b63a a3ad f3bd
000000a0: e041 ee37 1ec0 ef3a f031 5f3b bf24 d33d
000000b0: be18 133e 9ef7 9dba 6cf6 023a 853e a4bd
000000c0: 3834 133e ab01 f0bd 3e25 6f3d 9e7d 19b9
000000d0: 8133 6b3d 14ab f539 eacc b7a1 3708 15be
000000e0: d7ce 2c3a 3981 4fba 54fc 21ba 5721 ab1c
000000f0: 3390 57be 4f13 03be 0091 3f04 64a7 22bd
00000100: 5b2d 0c3e a5bc 948b ac4f 6933 907b 393d
00000110: e9db 163e 9c58 903b 8a86 85bc 3e79 c73d
00000120: 18f7 34bd 0944 563d a88e 97b8 40f7 27bd
00000130: 9c5e c03d fe1f 56bc bec5 bcb0 ae83 24be
00000140: 5139 cbbc c1cc 84bd 094f 75b1 3825 b381
00000150: efaf 2b3e 9210 fd3d 91ee 173e 5c0f 223d
00000160: 1b5b 4fbb 00fd 2a3b 5939 1dbe 37ae 1133
00000170: e8d9 6a3e 79b6 1e3e e8b9 ccb8 1737 eea1
00000180: 52ee aabd 8fd0 0dbe 4a31 3abe fff0 443e
00000190: da71 b83c fb76 403c 6bc9 883c f75f 1dbe
000001a0: 62dd 253a 6853 b93c aede 8cba ec5a 563e
000001b0: 1896 8dbb 592f da3d e0c5 b73c 797f 123e
000001c0: 9164 033e 104a 71be e25a 66bd 0b4a 933c
000001d0: dcec 33be b5f1 b03c 54a1 f401 50f4 973d
000001e0: 6ae4 2c3c 0ea8 bfbb b86c 8abb 27b1 79b8
000001f0: 7051 2c3e 4387 62be cc9a bbb3 0c9b 2a3e
00000200: 67aa 623d 6875 a39c e226 9f28 992d 7339
00000210: 1a17 6bbe 8af3 6abd f5ac 4cbd 4bd7 543e
00000220: eb0c 37bb 943b 623e f9b6 10b3 265f 2a3e
00000230: 903e d83c 9a17 343d 3a02 cca4 7518 063e
00000240: ed12 9f3d 2691 0f3e cfb6 dc05 e438 a33b
00000250: 3aa9 1abe d767 acbc b801 5f3e 0975 128b
00000260: 283f cd3b 0ca5 89bc 6b8d debc 83cc b51c
00000270: 19a5 383e 18f9 72be 8ac7 1237 fc93 5681
00000280: d08a 6fbe 4e67 6cbe 541e 9abc 573e 573e
00000290: f0c9 e4bc 47d6 3dbe 7728 5c3d 7355 523e
000002a0: ba54 7cbc 0c02 6abd cbff 97bd 7e15 873d
000002b0: 0389 633e c1b7 32bd 665e 963c 7b96 2c3e
000002c0: 4c33 5ebe 740c 89bc f949 dabd 4e46 6fbd
000002d0: 9ac2 8e3d f54d 3fbc 973c 0e13 5210 78bd
000002e0: b30f 443c 17b9 313a e90a 7fbb 6762 043a
000002f0: 705b 553d 7967 453d 54aa 7e34 cf0f 4d3d
00000300: 4d01 373e 0b4e a681 966c 8221 c902 b9bc
00000310: 75fc 493d 0110 a03d dcf1 953e ef85 223e
00000320: a719 02be 7589 04be e5e9 5637 a70c 4abe
00000330: d8fc 80be 295b 2a3d 55c4 64b4 fac7 54be
00000340: 7980 cb3d f533 9dbc 7fca 2e97 4e83 a0b5
00000350: c42e f13d ea8c 243d e5a2 383e 7490 763a
00000360: e91f 36bc 0747 323b 3b22 b33d 749e 4700
00000370: bb78 013e 9560 5dbe cc9c 0d3b e1a1 11aa
00000380: e542 ff3d 987e 06be 0dc2 f2bd 7deb 433e
00000390: 354a 7d3a 9e2c 2c3d ef32 b83c 3e12 4dbe
000003a0: a606 4abb d0d9 3d3d 3811 ac3c e1c6 293e
000003b0: 1bc2 8c3c 9a89 2e3c 5303 13bb e9a3 533d
000003c0: 0f1d eabd 1840 ecbd 1653 2a3e c062 cb3b
000003d0: 622d a6bd 282b a4bc 1d45 0faf 98b0 33be
000003e0: 14a1 173d 3ac5 a8bc 6ecb b7bb 6e11 be3b
000003f0: a563 75be 4fb4 0b3e a584 fbb4 bdfb 43be
0.17828433 -1.0977559e-37 1.1522293e-07 -0.0008632911 -0.19075945 0.0010586281 -0.09576943 -0.09961773
-0.030292265 -0.1418626 0.0011227684 -0.021784605 -0.096344054 0.0012561565 2.2653904e-10 0.12234575
-0.041261714 0.0025666214 -4.0577963e-09 -6.230012e-21 -0.05915211 0.088878416 -0.07890029 5.570777e-38
-0.00049033284 0.00017725733 -0.17122713 -5.609845e-20 0.13936685 0.15232538 5.0532763e-16 7.7911735e-38
0.1440197 -0.14204644 -0.09995709 -0.20790873 -8.562056e-07 -0.19866404 0.0013924994 -0.11898353
2.8402486e-05 0.0018291508 0.0034056865 0.10309743 0.14364907 -0.0012051945 0.0004995826 -0.08019737
0.14375389 -0.11719068 0.058385126 -0.00014638013 0.057422165 0.00046857505 -1.2454803e-18 -0.14553915
0.0006592101 -0.0007915679 -0.00061792624 1.1324449e-21 -0.21051101 -0.12800334 2.2518523e-36 -0.039710417
0.13689177 -5.729137e-32 5.4322e-08 0.045283854 0.14732327 0.0044050943 -0.016299505 0.09739922
-0.04418096 0.052310977 -7.226813e-05 -0.04100728 0.09393045 -0.013069151 -1.3735002e-09 -0.16065857
-0.024807604 -0.06484366 -3.5697119e-09 -6.580762e-38 0.16766332 0.12356676 0.148371 0.03956543
-0.0031639996 0.002609074 -0.15353908 3.391889e-08 0.22934687 0.15499295 -9.762106e-05 -1.6142089e-18
-0.08346237 -0.1384909 -0.18182865 0.19232558 0.022515226 0.011747117 0.016697606 -0.15368639
0.0006327239 0.022622779 -0.0010747516 0.20933121 -0.004320871 0.10653562 0.022433221 0.1430644
0.12831332 -0.23563409 -0.056239016 0.017979642 -0.17570823 0.02159963 8.986294e-38 0.07419646
0.010552505 -0.005848891 -0.004224386 -5.9531212e-05 0.16827941 -0.22121911 -8.7360235e-08 0.16660708
0.05533829 -1.0816784e-21 1.7669409e-14 0.00023191272 -0.22958031 -0.057361163 -0.049969632 0.20785253
-0.0027931284 0.2209304 -3.3694025e-08 0.16637859 0.02639702 0.04396782 -8.847467e-17 0.13095267
0.07767282 0.14020213 2.0755854e-35 0.004981147 -0.15103617 -0.021045608 0.21778 -2.8206625e-32
0.0062636323 -0.016802333 -0.027167043 1.203044e-21 0.1803173 -0.23727834 8.748737e-06 -3.9411766e-38
-0.23392797 -0.23086283 -0.01881329 0.21019875 -0.027928323 -0.18538772 0.053749528 0.20540409
-0.01540106 -0.05713086 -0.074218355 0.06595896 0.22220235 -0.043632273 0.01835556 0.16854279
-0.21699256 -0.01672957 -0.106586404 -0.058416657 0.06970711 -0.011676301 1.7952793e-27 -0.06056244
0.011966634 0.00067795947 -0.0038916415 0.00050500635 0.052089155 0.048194382 2.3717558e-07 0.050063904
0.1787159 -6.1090756e-38 8.837885e-19 -0.022584336 0.049313027 0.078155525 0.29286087 0.15871404
-0.12705098 -0.1294306 1.2809852e-05 -0.19731389 -0.25192904 0.041590843 -2.130558e-07 -0.2077941
0.099366136 -0.019189814 -5.647802e-25 -1.1959144e-06 0.11776498 0.04017345 0.1803089 0.00094056805
-0.011116006 0.002720298 0.08746763 6.577162e-39 0.12643711 -0.21618874 0.002160835 -1.293475e-13
0.12463931 -0.13134229 -0.118534185 0.191328 0.0009662242 0.042034738 0.022485225 -0.2002649
-0.0030826717 0.0463503 0.021004304 0.16579773 0.0171824 0.010652924 -0.0022432401 0.05166999
-0.11431324 -0.115356624 0.16633257 0.0062068403 -0.08114125 -0.02004011 -1.3030328e-10 -0.17547834
0.03701885 -0.020601857 -0.0056089675 0.0058004176 -0.23963793 0.13643001 -4.6848905e-07 -0.19139

layer2.bias f4 [32]
00000000: 1448 54bc d581 71bd b78e 57bd 097f 353e
00000010: 7cb6 3dbc c83d a43d 748a 173e 79cf 963e
00000020: e1ac 263e 3bdb 81bd 47ec c43e 5951 8f3d
00000030: a996 6f3e c444 78bd bb3f 2b3e 0eb9 823e
00000040: 36da 26be 0e62 a73e 71ed 2fbd 89ac c93d
00000050: 847b 9cbd 7ab6 583d 4a5b 993e 5b7e 8f3e
00000060: 1de6 163e 0e33 a23b 6fc0 b6bc eecc 2abd
00000070: f1fd ac3d 911d 14be 7a4c 983a 3981 2c3d
-0.012956638 -0.058961708 -0.052626338 0.17724241 -0.011579152 0.08019596 0.1479891 0.29455164
0.16276886 -0.06340643 0.38461515 0.06997938 0.23397316 -0.060612455 0.1672353 0.2553181
-0.16294178 0.32691997 -0.04295105 0.098473616 -0.07640746 0.0529084 0.2995246 0.2802609
0.14736219 0.004949934 -0.022308556 -0.041699342 0.08446873 -0.14464404 0.0011619471 0.042115424

output.weight f4 [1, 32]
00000000: 4540 04bd fa7e 4dbe 268a bc3e f6e8 6ebe
00000010: 78fb 40be 429a a43d 322d a03e 49a0 72be
00000020: 11e0 383e b415 9bbe 2345 d3be 8687 723e
00000030: 547a 5a3e 94d4 083e 450c 7a3d f63c a5be
00000040: 3256 b9bd a02c 76be f1fa a03e bc51 0c3f
00000050: 5028 3fbe 9722 aa3e 0615 89be 40fb c7be
00000060: 32fd 483e df83 983e 8a24 0bbd ad06 a0bd
00000070: 5773 cdbb d707 37be 9668 a33e cf46 cd3e
-0.032287855 -0.20067969 0.3682415 -0.23331055 -0.18845928 0.08037235 0.3128448 -0.23693956
0.18054225 -0.30289996 -0.41263685 0.2368451 0.21335727 0.13362342 0.061046857 -0.32273072
-0.090496436 -0.2404046 0.31441453 0.54812217 -0.18667722 0.33229515 -0.26773852 -0.39058876
0.19627836 0.2978811 -0.033970393 -0.07813773 -0.006269853 -0.17874084 0.3191573 0.40093085
