over_under_model.pth (torch, 29090 bytes, 5 tensors)

layer1.weight f4 [64, 69]
0.05884981 -0.09967763 0.05400659 -0.0816235 0.034397945 0.11171271 0.10619919 -0.046309687
-0.07067746 -0.10136519 0.101431996 0.09089658 -0.073367074 -0.077950925 -0.10252263 0.101151824
0.056652293 -0.02823352 -0.07026541 0.006465614 0.079872906 -0.045429826 0.04991068 0.02646473
0.065221354 0.0971206 0.059115306 0.09971163 0.062202856 -0.06276019 0.08927603 -0.062651746
0.041567072 0.0063668042 0.033952624 -0.025279358 0.0034996048 0.07983689 0.020523101 0.09241496
-0.06817088 0.02147378 -0.11756975 -0.096246555 -0.08014199 -0.089510545 0.07736075 0.049233124
-0.07391952 0.011591896 -0.059564434 0.0051988214 0.057706103 0.011997625 -0.05057715 -0.108762875
0.11278176 0.09573561 -0.039458208 -0.11805579 0.10934359 -0.09417804 -0.010472238 -0.033766262
0.11235389 0.11893815 -0.09014027 -0.09096369 -0.08664748 0.05607414 0.06701796 -0.06166216
-0.009863602 0.072111435 -0.3254528 0.35754925 -0.28830436 -0.2535123 0.27456236 0.6750308
-0.63875353 0.010166344 0.4064257 0.24163008 -0.096945986 0.2127925 0.08306851 -0.4426187
0.23770772 -0.03793867 -0.033136632 -0.04173096 0.39402965 0.11459251 -0.7208126 0.7604922
-0.59109807 0.028867863 0.2788088 -0.15659666 -0.35524645 -0.14264275 0.06199648 -0.8566992
-0.5789836 0.078850314 -0.16548237 -0.021357015 -0.25489137 0.5164963 0.48712182 0.19659819
-0.09597357 -0.7598913 -0.37223962 0.19912545 0.004016984 0.2632909 -0.21132821 -0.14826554
-0.65927345 -0.4892131 0.14679584 0.47124064 -0.78035724 0.50788605 0.21253552 -0.3061416
0.44476837 -0.5167771 0.2647827 -0.107102774 -0.7194454 0.5994766 0.23035866 0.17180596
-0.18343583 0.6292641 -0.15653785 0.022791902 -0.12232154 0.009728452 0.13890739 0.3208196
-0.8076304 -0.43618223 0.728315 0.36230677 -0.11939239 0.09076937 0.036474813 -0.21402463
-0.13939504 -0.36432078 0.25066075 0.27644405 -0.53400606 0.3101377 0.1495558 0.0073699025
-0.26003948 -0.5509813 0.34090388 0.19989139 0.042392727 -0.23794785 0.90089417 0.7344616
0.043803383 -0.37823096 -0.6866466 -0.34897044 0.4241313 0.22320862 -0.54116845 -0.30707568
0.5629569 -0.4530233 -0.4863561 0.028871322 0.1261153 -0.54623777 0.64291644 -0.1711287
-0.508358 0.17664352 -0.7599786 -0.09490302 0.28804824 0.0030036778 0.030245097 -0.4598944
-0.06370977 -0.39303043 -0.081657015 0.91487974 0.06418143 -0.14458895 0.23590866 -0.7708897
0.6181217 0.20416409 -0.14493123 0.46267775 0.07498916 -0.78514105 0.46972874 0.062277272
-0.095901094 0.0068433136 0.0035461485 0.008203372 -0.05682949 0.037449434 0.027275681 -0.0010366067
-0.10080676 0.08640662 -0.105441526 -0.051297434 0.1164297 0.09416799 0.05190842 0.1078849
0.0695326 0.11091387 0.10137473 -0.10273014 -0.10309145 -0.011363655 -0.008639008 -0.0508852
0.023489311 0.027098969 0.01395151 0.096113205 -0.073969215 0.0018249154 0.01632899 0.036705554
-0.031170487 -0.07154355 0.09997532 0.11357497 0.069267765 0.03270085 0.081756815 0.06532785
-0.10750731 -0.03860326 0.07211502 -0.01658152 -0.021517798 0.061952844 -0.033602208 0.10832085
00000000: 800c 713d c923 ccbd 0436 5d3d 392a a7bd
00000010: dce4 0c3d a2c9 e43d f67e d93d 3aaf 3dbd
00000020: 58bf 90bd 8e98 cfbd 94bb cf3d fc27 ba3d
00000030: 7a41 96bd bca4 9fbd 62f7 d1bd b028 cf3d
00000040: 3c0c 683d fc49 e7bc 50e7 8fbd 80dd d33b
00000050: 6894 a33d a014 3abd 246f 4c3d 90cc d83c
00000060: c692 853d 2ae7 c63d e422 723d 9c35 cc3d
00000070: 6cc8 7e3d 6a88 80bd 5ad6 b63d 8f4f 80bd
00000080: 3c42 2a3d a0a0 d03b e811 0b3d a816 cfbc
00000090: a059 653b 8681 a33d 1020 a83c 0e44 bd3d
000000a0: 2d9d 8bbd c8e9 af3c 69c8 f0bd ea1c c5bd
000000b0: 7c21 a4bd 4e51 b7bd 506f 9e3d aca8 493d
000000c0: 1e63 97bd f0eb 3d3c d6f9 73bd e05a aa3b
000000d0: 3c5d 6c3d b091 443c fc29 4fbd 12bf debd
000000e0: 20fa e63d 0811 c43d ee9e 21bd 3cc7 f1bd
000000f0: 88ef df3d 6be0 c0bd c093 2bbc 7e4e 0abd
00000100: cc19 e63d d895 f33d 769b b8bd 2c4b babd
00000110: 3c74 b1bd ffad 653d b640 893d 7691 7cbd
00000120: f29a 21bc 29af 933d c0a1 a6be b210 b73e
00000130: a19c 93be 5dcc 81be 7093 8c3e d2ce 2c3f
00000140: 5a85 23bf bd90 263c 0817 d03e e06d 773e
00000150: 9e8b c6bd 47e6 593e d31f aa3d eb9e e2be
00000160: a769 733e 9465 1bbd 47ba 07bd 15ee 2abd
00000170: 41be c93e 7aaf ea3d 2d87 38bf 9eaf 423f
00000180: 3452 17bf 4c7c ec3c 07c0 8e3e e05a 20be
00000190: dde2 b5be f110 12be 05f0 7d3d a450 5bbf
000001a0: 4538 14bf 467c a13d 3674 29be e8f4 aebc
000001b0: 1f81 82be 1a39 043f 0868 f93e 0951 493e
000001c0: cb8d c4bd 3c88 42bf 3196 bebe 8be7 4b3e
000001d0: e7a0 833b 11ce 863e 6c66 58be ecd2 17be
000001e0: 25c6 28bf 247a fabe a651 163e 7446 f13e
000001f0: 7ec5 47bf d204 023f e9a2 593e 97be 9cbe
00000200: aeb8 e33e 814b 04bf 9991 873e b358 dbbd
00000210: 932d 38bf 4c77 193f 24e3 6b3e e7ed 2f3e
00000220: 9ad6 3bbe 7417 213f 754b 20be 15b6 ba3c
00000230: b783 fabd 1664 1f3c bd3d 0e3e 7742 a43e
00000240: dec0 4ebf 4753 dfbe da72 3a3f 4680 b93e
00000250: ff83 f4bd 4be5 b93d 9d66 153d 4629 5bbe
00000260: 93bd 0ebe 4188 babe 9b56 803e 138a 8d3e
00000270: 9fb4 08bf 5eca 9e3e 2825 193e 397f f13b
00000280: e523 85be 1c0d 0dbf f48a ae3e 54b0 4c3e
00000290: ffa3 2d3d 9aa8 73be 00a1 663f ad05 3c3f
000002a0: 2d6b 333d 7da7 c1be 12c8 2fbf 41ac b2be
000002b0: bd27 d93e cd90 643e 048a 0abf 0639 9dbe
000002c0: f21d 103f acf2 e7be ab03 f9be 8d83 ec3c
000002d0: 5f24 013e 3dd6 0bbf 2c96 243f 5d3c 2fbe
000002e0: c023 02bf 0ae2 343e f58d 42bf 845c c2bd
000002f0: 0f7b 933e 5ad9 443b 91c4 f73c 4777 ebbe
00000300: 457a 82bd 493b c9be cb3b a7bd 8f35 6a3f
00000310: 8e71 833d 200f 14be 0a92 713e 0759 45bf
00000320: 393d 1e3f 6410 513e da68 14be 19e4 ec3e
00000330: eb93 993d 01ff 48bf 4980 f03e 7416 7f3d
00000340: cb67 c4bd e03d e03b 8066 683b 7067 063c
00000350: 0ac6 68bd 9464 193d 4071 df3c c0de 87ba
00000360: c673 cebd f4f5 b03d baf1 d7bd 421d 52bd
00000370: b272 ee3d 26db c03d ec9d 543d c2f2 dc3d
00000380: 1c67 8e3d d026 e33d 8e9d cf3d 2e64 d2bd
00000390: 9c21 d3bd a02e 3abc a08a 0dbc 006d 50bd
000003a0: a86c c03c a8fe dd3c e094 643c 00d7 c43d
000003b0: 2c7d 97bd 0032 ef3a 60c4 853c 9058 163d
000003c0: 4059 ffbc 6d85 92bd dcbf cc3d fe99 e83d
000003d0: 42dc 8d3d 54f1 053d 1e70 a73d 9cca 853d
000003e0: cb2c dcbd 741e 1ebd 0ab1 933d f8d5 87bc
000003f0: 1846 b0bc 44c2 7d3d 78a2 09bd 52d7 dd3d

layer1.bias f4 [64]
0.029582202 0.056468714 -0.029834924 0.077003926 -0.07066837 0.005430668 0.16883881 0.15682949
-0.17560308 -0.0066760406 0.019170903 0.12978101 -0.018646698 -0.0974128 0.06568448 0.0020597603
0.1124752 0.08724423 -0.059498277 0.036374882 -0.06986868 -0.01998989 -0.023144899 -0.058171913
-0.1111393 -0.05393668 0.0873321 -0.13270283 -0.007991246 -0.07401252 0.08768503 -0.064428605
0.089258626 -0.06493973 0.047527637 -0.10125283 -0.023527717 0.09175854 -0.071456224 -0.07130472
0.035294585 -0.05942136 -0.08309769 -0.05622576 -0.008481487 0.00012871623 -0.030269764 0.01155186
-0.009176613 0.05054103 0.09825675 -0.04328221 0.06558265 0.071508706 0.08142994 -0.0029654817
0.0063374806 0.32909924 0.03391662 -0.04015469 -0.10520067 -0.10598957 0.1113094 0.076735556
00000000: 6056 f23c bd4b 673d 5f68 f4bc 3cb4 9d3d
00000010: 94ba 90bd bff3 b13b 15e4 2c3e e997 203e
00000020: 4bd1 33be b0c2 dabb 4c0c 9d3c 50e5 043e
00000030: f6c0 98bc 5d80 c7bd 9685 863d 0bfd 063b
00000040: 6659 e63d 1aad b23d 77b4 73bd d4fd 143d
00000050: 4f17 8fbd d6c1 a3bc 5f9a bdbc ac45 6ebd
00000060: 009d e3bd b5ec 5cbd 2cdb b23d 40e3 07be
00000070: b7ed 02bc e093 97bd 3694 b33d 25f3 83bd
00000080: 3acd b63d 1fff 84bd 57ac 423d a55d cfbd
00000090: 33bd c0bc e7eb bb3d a457 92bd 3608 92bd
000000a0: 0e91 103d d063 73bd 1f2f aabd fc4c 66bd
000000b0: eff5 0abc 00f8 0639 4cf8 f7bc 0344 3d3c
000000c0: 8159 16bc 1c04 4f3d d63a c93d b048 31bd
000000d0: 3250 863d 2873 923d bec4 a63d 8758 42bb
000000e0: a4aa cf3b b27f a83e 27ec 0a3d 3f79 24bd
000000f0: 7373 d7bd 0f11 d9bd 2ff6 e33d 8827 9d3d

layer2.weight f4 [32, 64]
0.002456382 -0.024677068 0.008091895 0.0991337 -0.014594406 0.06824304 0.24367356 0.120392695
-0.49695575 -0.005677983 -0.060855854 0.12466064 0.065910056 -0.05342904 0.01092276 0.19721924
-0.10427211 -0.11734024 0.027426705 0.09712675 -0.6387079 0.05519828 -0.0833902 -0.10066368
-0.06598756 -0.102212496 0.07730712 0.024854321 0.081896074 0.02164419 0.10618152 0.070515834
-0.40426388 -0.1434133 0.05235193 -0.028172988 0.0055522197 0.050557356 -0.031183243 0.12929523
0.13912368 -0.05101782 -0.049714968 -0.010888234 0.07863938 -0.08631568 -0.108132705 0.085193574
0.6351315 -0.0750637 0.053824864 0.05189048 -0.09142401 0.062204838 0.10227865 -0.26832065
0.15109375 0.11360342 0.01151714 0.0034353225 0.12804033 -0.009810552 0.121327385 -0.005826637
-0.08430317 0.07905281 0.012827401 0.01632011 -0.04100807 0.117677405 0.21344142 -0.040846854
-0.58709043 0.0017396361 -0.1314533 0.11672898 0.07459209 0.11726431 -0.07203451 0.30513018
-0.07087207 0.004806459 0.10822895 -0.035429955 -0.4459848 -0.04703737 -0.052587256 -0.00060239714
0.08700418 0.076366276 0.11668259 0.024136314 -0.0787357 -0.07883008 0.13355418 0.05608774
-0.18433574 -0.091149434 0.031294063 -0.01184787 -0.0269607 -0.079473376 -0.116791666 -0.031170644
-0.03355714 0.055270165 -0.10312964 0.030615881 0.10486036 -0.047311723 0.08647465 -0.04758823
0.58594894 -0.0013828805 0.08606041 -0.011557174 -0.046439976 0.087133884 0.038559735 -0.3067737
0.14666054 0.16965076 -0.0071868175 -0.08038424 0.14095564 -0.07121351 0.10251319 -0.06637086
0.10808331 -0.07660113 0.0697889 -0.068979755 0.046413854 0.06668106 -0.116192386 -0.017320305
0.11219148 0.06592812 -0.012333512 0.05279538 -0.11320834 -0.050030947 0.10890241 0.109004885
0.056206644 -0.09110311 -0.05429904 0.08908264 -0.10801029 -0.0763399 -0.07104121 0.106576696
0.11708067 0.044900775 0.04743959 -0.08877863 0.11817691 -0.082595676 -0.0265996 -0.092564985
-0.11910783 0.08156678 -0.08768515 0.09373921 0.10995321 -0.11312747 0.08223638 0.04341048
-0.07590568 -0.060557783 0.035969973 0.08320539 0.019795895 -0.06342065 -0.06508389 -0.11504987
-0.11642699 0.032568634 -0.020941019 0.060818464 -0.09410407 0.023407549 0.09616411 -0.006702125
-0.06581947 0.0052294135 0.018752292 0.024188727 0.014773041 0.068170294 -0.06497039 -0.045241088
0.075830504 -0.10007861 -0.054911632 0.058634847 -0.009230971 0.0067151044 0.1614632 0.05165674
-0.5973196 -0.014017612 -0.069812596 -0.08525863 -0.025854068 -0.051478837 0.10151321 0.14403287
-0.1003506 0.0820473 -0.038264483 -0.03899817 -0.6209663 -0.04831093 0.00046980407 -0.06623561
0.03676545 0.06897684 -0.085398465 0.061614342 -0.06342592 0.08377588 -0.043245047 0.028775578
-0.29336452 0.024812872 0.05781459 -0.051122863 -0.09650819 0.10843526 -0.12011814 0.1360179
0.11222531 0.01214022 0.12970911 -0.11044259 0.100789644 -0.09399487 0.06114375 0.11444313
0.6230329 0.027148655 0.0797138 -0.022143258 -0.026795179 -0.041363597 -0.07489671 -0.3347038
0.12771572 0.063745886 -0.05034017 0.08107184 0.05511912 -0.00608021 0.12407795 -0.0036447048
00000000: 40fb 203b 9027 cabc de93 043c 9c06 cb3d
00000010: 601d 6fbc 02c3 8b3d 9085 793e 7290 f63d
00000020: fc70 febe 600e babb fd43 79bd 144e ff3d
00000030: dafb 863d 69d8 5abd 60f5 323c d7f3 493e
00000040: 9e8c d5bd 1450 f0bd f8ad e03c 64ea c63d
00000050: 5c82 23bf 9717 623d 7bc8 aabd c228 cebd
00000060: 7c24 87bd c954 d1bd 3253 9e3d 4a9b cb3c
00000070: 21b9 a73d 284f b13c b275 d93d 9b6a 903d
00000080: adfb cebe f0da 12be fa6e 563d 0acb e6bc
00000090: 65ef b53b 3b15 4f3d 0074 ffbc f865 043e
000000a0: 7076 0e3e 10f8 50bd eca1 4bbd 9064 32bc
000000b0: af0d a13d 46c6 b0bd ae74 ddbd f879 ae3d
000000c0: fa97 223f ffba 99bd 7677 5c3d 1d8b 543d
000000d0: 833c bbbd 80ca 7e3d 7877 d13d 5361 89be
000000e0: 52b8 1a3e e9a8 e83d 63b2 3c3c 2623 613b
000000f0: 011d 033e 70bc 20bc 7e7a f83d 60ed bebb
00000100: 24a7 acbd 71e6 a13d 052a 523c c0b1 853c
00000110: 14f8 27bd da00 f13d 6390 5a3e 084f 27bd
00000120: 8f4b 16bf 8004 e43a b29b 06be 9a0f ef3d
00000130: bdc3 983d 4528 f03d d486 93bd 063a 9c3e
00000140: 6025 91bd 807f 9d3b 24a7 dd3d 001f 11bd
00000150: 1f58 e4be 42aa 40bd bc65 57bd 30ea 1dba
00000160: 3f2f b23d ec65 9c3d 48f7 ee3d 85b9 c53c
00000170: 2f40 a1bd aa71 a1bd 6dc2 083e 42bc 653d
00000180: 82c2 3cbe 8eac babd 342e 003d 921d 42bc
00000190: b0dc dcbc f0c2 a2bd 7830 efbd 9459 ffbc
000001a0: 3673 09bd f862 623d a235 d3bd 28ce fa3c
000001b0: 07c1 d63d f0c9 41bd 9f19 b13d e0eb 42bd
000001c0: c000 163f c541 b5ba 7140 b03d 4d5a 3dbc
000001d0: d837 3ebd 4073 b23d d0f0 1d3d 7111 9dbe
000001e0: 2e2e 163e eeb8 2d3e 657f ebbb 7ea0 a4bd
000001f0: ad56 103e 64d8 91bd 6ff2 d13d 72ed 87bd
00000200: c85a dd3d 0ee1 9cbd 7ced 8e3d 4245 8dbd
00000210: 741c 3e3d 1490 883d 46f6 edbd 50e3 8dbc
00000220: a6c4 e53d 5205 873d 8012 4abc f83f 583d
00000230: c6d9 e7bd 40ed 4cbd 3a08 df3d f43d df3d
00000240: f038 663d 4494 babd ac68 5ebd f670 b63d
00000250: 8034 ddbd 1858 9cbd 0e7e 91bd e244 da3d
00000260: fec7 ef3d e0e9 373d 0450 423d 92d1 b5bd
00000270: bc06 f23d ec27 a9bd 68e7 d9bc b692 bdbd
00000280: ceee f3bd 7c0c a73d 4694 b3bd 58fa bf3d
00000290: 262f e13d 60af e7bd 8c6b a83d 30cf 313d
000002a0: 7074 9bbd 700b 78bd 4055 133d 9667 aa3d
000002b0: 002b a23c b0e2 81bd b44a 85bd 449f ebbd
000002c0: 4671 eebd b066 053d 808c abbc c81c 793d
000002d0: a2b9 c0bd 30c1 bf3c b0f1 c43d 809d dbbb
000002e0: 5ccc 86bd 805b ab3b 689e 993c 7027 c63c
000002f0: a00a 723c de9c 8b3d 320f 85bd b84e 39bd
00000300: 064d 9b3d 04f6 ccbd 05eb 60bd 182b 703d
00000310: 803d 17bc 610a dc3b 9c56 253e 0596 533d
00000320: f0e9 18bf 20aa 65bc e8f9 8ebd 149c aebd
00000330: e9cb d3bc 79db 52bd 28e6 cf3d 5a7d 133e
00000340: 9e84 cdbd 6a08 a83d 38bb 1cbd 8cbc 1fbd
00000350: a6f7 1ebf afe1 45bd 0950 f639 89a6 87bd
00000360: 5e97 163d bb43 8d3d 64e5 aebd 525f 7c3d
00000370: 73e5 81bd b092 ab3d b821 31bd c3ba eb3c
00000380: e033 96be 5d44 cb3c fece 6c3d 3566 51bd
00000390: 16a6 c5bd 4e13 de3d 8000 f6bd 4748 0b3e
000003a0: 62d6 e53d c6e7 463c 77d2 043e ba2f e2bd
000003b0: cd6a ce3d 6280 c0bd de71 7a3d 2961 ea3d
000003c0: 167f 1f3f db66 de3c fd40 a33d c765 b5bc
000003d0: 9081 dbbc e06c 29bd 7263 99bd 4c5e abbe
000003e0: e9c7 023e 348d 823d 7e31 4ebd fe08 a63d
000003f0: 96c4 613d 803c c7bb 951c fe3d 00dc 6ebb

layer2.bias f4 [32]
-0.08118416 0.081687726 -0.11822291 -0.002223613 -0.04365415 -0.11204665 -0.026539711 -0.03548289
-0.108281225 -0.043513685 -0.107986584 0.13232116 0.07261972 -0.016121628 0.022011604 0.095435254
0.016852759 -0.015639216 -0.047703043 0.103879705 -0.09313373 -0.026082126 -0.08576748 0.004644379
-0.062742814 -0.0381988 -0.0057228007 0.034941923 -0.039613068 0.09062733 0.03537625 -0.04038681
00000000: e243 a6bd e54b a73d da1e f2bd 09ba 11bb
00000010: b2ce 32bd b778 e5bd cf69 d9bc 8256 11bd
00000020: 8cc2 ddbd 683b 32bd 1228 ddbd 337f 073e
00000030: a6b9 943d 8111 84bc ae51 b43c 8f73 c33d
00000040: cc0e 8a3c d01d 80bc 4464 43bd e2be d43d
00000050: e6bc bebd 2faa d5bc dca6 afbd e02f 983b
00000060: 4e7f 80bd 5876 1cbd 5586 bbbb 431f 0f3d
00000070: 5041 22bd d29a b93d b0e6 103d a46c 25bd

output_layer.weight f4 [1, 32]
0.29119602 0.17677118 -0.12609477 0.15805098 -0.90529895 -0.047263622 -0.23430316 0.13792416
-0.28408864 1.4823338 -0.75627756 0.17409413 -0.052118793 -1.2221888 0.13808277 0.22204262
-0.1681088 -0.078292236 0.09767821 0.12006764 -0.5338917 -0.21416509 0.22357519 -0.15372577
-0.15359038 0.045322463 -0.025262758 -0.09357562 0.30582294 0.26695904 0.015711382 0.027531207
00000000: a517 953e 8103 353e fd1e 01be 1ed8 213e
00000010: acc1 67bf 8097 41bd 2bed 6fbe fe3b 0d3e
00000020: 1174 91be 1dbd bd3f 689b 41bf bb45 323e
00000030: 847a 55bd af70 9cbf 9265 0d3e 245f 633e
00000040: b724 2cbe ae57 a0bd 830b c83d 06e6 f53d
00000050: 20ad 08bf 184e 5bbe e5f0 643e 4a6a 1dbe
00000060: cc46 1dbe 0ca4 393d d8f3 cebc 93a4 bfbd
00000070: d394 9c3e dbae 883e 28b5 803c 2089 e13c
